RL/Pendulum/checkpoint_critic.pth (torch, 492199 bytes, 5 tensors)

fcs1.weight f4 [400, 3]
000000 b0 e6 8c bf b6 25 fb 3e 42 ce 22 be fe b9 75 3c
       -1.10079 0.4905221 -0.15898994 0.014997957
000010 47 b0 8f bc 6e 21 87 ba a0 e0 fc 3e 5a 11 c3 3f
       -0.01754011 -0.0010309645 0.49390125 1.523967
000020 33 02 01 3f 72 ed 2f 3d e6 bc c8 bd 86 42 7d 39
       0.5039398 0.042951055 -0.098016545 0.00024152742
000030 6c ff ec 3d 3b 8f 93 3f d6 56 e7 3d bf 14 35 bd
       0.11572155 1.1528085 0.112958595 -0.04420924
000040 48 7c 3e bd b4 2b 3d 3c 92 eb f1 3f 66 11 ab 3f
       -0.046505243 0.011546064 1.8900015 1.3364685
000050 a7 80 90 3e 10 7e ba 3d 1c 25 95 3e 10 e3 5b 3f
       0.28223154 0.09106076 0.29129875 0.85893345
000060 da 99 57 bf b6 f7 79 bf 79 6e 7f be 45 51 ed bf
       -0.84219134 -0.976436 -0.24944486 -1.8540426
000070 75 84 92 be 8c b1 36 bd 91 d7 e8 3f 4a 62 17 c0
       -0.28616682 -0.044602916 1.8190786 -2.365374
000080 d1 f3 31 bf b9 66 ce bd 0a d2 14 3e 85 e3 03 3b
       -0.6951266 -0.100781865 0.14533249 0.0020124626
000090 e4 34 39 bf 2e 95 b8 bf de fe 99 be 53 39 14 3d
       -0.7234633 -1.4420526 -0.3007726 0.03618748
0000a0 34 39 7a 3c b0 b0 0e bb 57 af 29 3d 0c 6a 2f 3d
       0.015272427 -0.0021772794 0.041426983 0.042825744
0000b0 8f 72 20 3c 60 de c4 3e ab 38 96 bf a0 d3 0a bf
       0.009792938 0.3845091 -1.1736044 -0.54229164
0000c0 68 ce 25 3c f8 82 31 bc 30 0d 01 bd ca 94 b3 bc
       0.010120012 -0.010834448 -0.031506717 -0.021921534
0000d0 08 26 27 3c e8 f4 d2 bb 6f 57 25 3f e7 09 12 c0
       0.010201938 -0.0064378865 0.6458654 -2.2818544
0000e0 ce 01 7c 3e 60 51 ba ba 2c 74 07 bc e0 3f 0a bc
       0.24610063 -0.0014214925 -0.008267444 -0.008438081
0000f0 47 2b 0d 3d aa af f2 bc d0 12 a2 bc ef a0 0d 3d
       0.0344651 -0.029624779 -0.019784361 0.034577306
000100 8c c4 75 3c 12 35 b3 3c 67 90 a7 3d 27 db 77 bd
       0.015000474 0.021875892 0.081818394 -0.060511734
000110 ac dc 9f b9 d8 54 d7 3b 09 5d 00 3d 53 ce ed bc
       -0.00030491257 0.0065713935 0.031338725 -0.029029047
000120 cd 6d dd 3e 47 0c e1 bf 22 15 e2 3e ab bf 86 bd
       0.43247834 -1.7581872 0.44156748 -0.065795265
000130 9b ab 24 c0 e4 87 0b bf 1c ab d5 3f d7 9e 3e bf
       -2.572974 -0.5450423 1.6692843 -0.7446112
000140 85 84 23 bf d9 56 2b bf 1f 5c 95 3f 9a f1 52 3e
       -0.63874084 -0.66929394 1.1668738 0.20599976
000150 be a4 96 3c 9a 6a bc 3c 48 47 49 bd 3a 69 fe bc
       0.018389102 0.02300005 -0.049140245 -0.031056035
000160 28 08 21 bd 4e 90 0c bd 00 26 9e bc 22 b4 da 3c
       -0.03931442 -0.034317307 -0.01930523 0.026697222
000170 d9 92 10 3d c3 3a d2 3a 9c e3 ca bc 54 c3 9f b7
       0.035296295 0.0016039241 -0.024766736 -1.9045234e-05
000180 4d 48 08 3d 83 96 d6 bc 05 13 30 bd 23 9e fb 3a
       0.033272076 -0.026194816 -0.04298689 0.0019196909
000190 40 f9 b5 bc b4 6b 15 ba 1d 47 25 3d 45 59 0c bd
       -0.022213578 -0.0005699948 0.040351022 -0.03426482
0001a0 e8 c4 83 3b e9 c6 b1 3f 2f a1 e9 bf 8e fe f3 be
       0.004021276 1.3888828 -1.8252314 -0.47655147
0001b0 54 38 28 be 6f 54 c3 bd 90 43 9e 39 01 53 93 bc
       -0.16427737 -0.09537589 0.00030186446 -0.017983915
0001c0 45 c8 19 bd 3e 1c b9 ba db c0 62 3d 0f a3 3f 3b
       -0.037544508 -0.0014122797 0.055359703 0.0029241478
0001d0 9a 42 ad bc ab 78 c8 3e b8 29 12 40 52 9b 05 3f
       -0.021149922 0.39154562 2.2837963 0.52190125
0001e0 7f 74 31 bd 61 cc d4 3c 46 3c 48 bb 3b 6a 26 bd
       -0.04332399 0.025976362 -0.0030553504 -0.040628653
0001f0 89 57 1f 3d c2 6a bb 3c 1f 85 5f bd b6 48 c9 3d
       0.03890184 0.022878055 -0.054570314 0.09828322
000200 d6 99 0c 3b 94 d8 d0 3f 0e 47 26 bf ae c7 32 bf
       0.0021453998 1.6316094 -0.6495217 -0.6983594
000210 15 e3 9d 3f a8 76 f5 3e 04 96 23 3f 25 92 2e bd
       1.2334925 0.4794209 0.6390078 -0.042619843
000220 a0 e5 31 bd 1a 36 aa 3c 9f f2 a2 3c 9d f4 74 bd
       -0.043431878 0.02077775 0.019891081 -0.059803594
000230 ca c0 bb 39 8c 80 29 bf 3f 48 7e 3f a3 ee 2e 3e
       0.00035811058 -0.6621177 0.9932899 0.1708322
000240 db 15 9f 3f ff da 05 c0 4b 6f 43 bd 13 9b b8 3e
       1.2428545 -2.0914915 -0.04771356 0.36055812
000250 2a 73 ea bf 12 7d ec 3d 5c 45 8b be ac af b7 be
       -1.8316395 0.11547293 -0.27201355 -0.35876215
000260 82 33 34 bf ca 13 d5 3c 98 b6 f8 bb 87 70 e0 bc
       -0.70391095 0.026010413 -0.0075901262 -0.027397407
000270 93 3e 19 bd 66 7a c2 3c f6 0f 88 3c ef c4 86 3c
       -0.03741319 0.023740005 0.016609173 0.016451327
000280 82 6c 93 bc 82 5d 45 b9 41 5a 6b bf e6 b3 1d bf
       -0.017996076 -0.00018822218 -0.9193459 -0.6160263
000290 ea 31 73 be e7 a0 93 3f c4 15 d5 bf 29 cf 0c bf
       -0.2374951 1.1533478 -1.6647267 -0.550036
0002a0 1c ea 39 bd 54 c5 23 be be a9 a5 bc cc ad a5 bc
       -0.04538928 -0.15993243 -0.020222541 -0.020224474
0002b0 62 a6 a4 3d a4 93 4b 3b ba 5b 5c 3f 21 da 1f c0
       0.080395475 0.0031063342 0.86077464 -2.4976885
0002c0 b1 cb 1d bf ce 4e 29 be e4 22 f6 bf f9 79 80 be
       -0.61638933 -0.16533968 -1.9229398 -0.25093058
0002d0 84 fc 70 3c df d1 0c 3d 60 48 21 3c 40 ef 07 3c
       0.014708642 0.034379836 0.009843916 0.008296788
0002e0 82 94 f1 3c 3a 86 08 bd 05 7f 88 3d 67 65 55 40
       0.02948976 -0.033331133 0.06664852 3.334314
0002f0 c6 c5 49 3f 00 34 e2 3b b8 c7 1e bd 3a 17 a4 bc
       0.78817403 0.0069031715 -0.038764685 -0.020030607
000300 b4 f1 80 bc e7 69 32 bd 6e 2c 27 bd d0 f2 bc bd
       -0.015740253 -0.043558028 -0.040813856 -0.09226
000310 7b 79 96 bc 01 39 5f 3b cc 4a 7c 3d 24 8f 8e bc
       -0.018368473 0.0034061077 0.06159477 -0.01740224
000320 46 09 d0 3c b6 2f a5 3b b2 e1 62 3d 87 92 92 3a
       0.025395047 0.005041088 0.05539102 0.0011182585
000330 51 bb 06 3d ab 33 18 3d 74 75 0c bd 08 6c b0 3d
       0.032893483 0.03715865 -0.0342917 0.08614355
000340 b9 74 8b bd 09 c5 ce 3c 80 e5 6b 3a 22 91 37 bd
       -0.068093725 0.025240438 0.0008998737 -0.044816144
000350 90 0f 86 bb e6 5d 42 bc fe 06 41 3d 00 6d 3d 3b
       -0.0040912107 -0.011863207 0.04712581 0.002890408
000360 a7 35 71 be 13 f1 b8 bd 22 19 52 bb 8e d7 85 3e
       -0.23555623 -0.09030356 -0.0032058437 0.26141018
000370 6f b9 36 bd ec c6 96 be 50 d3 a7 3f 20 87 73 bf
       -0.044610437 -0.2944864 1.3111362 -0.9512806
000380 e8 1c 90 be ef 54 44 3d 9e 71 ba 3c b2 3d 20 bd
       -0.28147054 0.04793256 0.022759255 -0.039121337
000390 3b 9c 25 bd 8d ba 1d bd 08 70 04 bc 21 38 1c 3d
       -0.040432196 -0.038507987 -0.008083351 0.038139466
0003a0 94 9a 0a 3c 86 b6 ae 3c 23 37 28 bf 72 b9 81 3f
       0.008459706 0.021327268 -0.6570913 1.0134718
0003b0 77 27 68 3e 5c fc 50 3c e1 41 14 3d e8 07 d2 bb
       0.22671305 0.01275548 0.03619564 -0.006409634
0003c0 90 c2 66 bd 22 37 eb bd 70 85 9b b9 d3 ed 24 3f
       -0.056337893 -0.11485125 -0.00029663322 0.6442539
0003d0 13 0e 5f bf e4 07 23 be b9 0f 45 3d 4a f9 04 bd
       -0.8713085 -0.15920979 0.048110697 -0.032464303
0003e0 97 4c db bc 82 0a 96 3d 82 d1 3d bd 82 93 5d 3b
       -0.02676992 0.07326223 -0.04634238 0.0033809845
0003f0 82 c6 27 3d d0 85 3e 3d ae 27 1b 3a b9 f3 2e 3d
       0.040960796 0.046514332 0.00059186935 0.0427129

fcs1.bias f4 [400]
000000 f3 f9 1a bf 35 9a 10 bd 85 ae 86 bf 80 32 f7 bd
       -0.6053764 -0.035303313 -1.0522009 -0.12070179
000010 af f2 23 bf ea ad e8 be 3d 65 c2 bf 2b 00 d1 bf
       -0.6404218 -0.45445186 -1.5187145 -1.6328176
000020 28 92 1f 3f 6c ee 24 bf 29 7f 0c c0 61 be 45 be
       0.6233239 -0.644263 -2.1952612 -0.19310905
000030 cb e9 de 3e b6 6f 5d be 6a 07 71 be e6 72 fa bf
       0.43537745 -0.21624646 -0.23537984 -1.9566314
000040 2a 8c 9d be 90 b6 a4 bd 82 eb a4 bf c2 59 a3 be
       -0.30771 -0.080426335 -1.2884371 -0.31904417
000050 38 fa ff be 70 d1 00 bf e8 5c dc bd 24 d7 84 be
       -0.4999559 -0.50319576 -0.10759908 -0.2594539
000060 83 4f bf bf 43 cc 79 be 1e 24 0f c0 83 07 76 3e
       -1.494614 -0.24394326 -2.2365794 0.24026303
000070 d1 2d 02 bf aa f3 f8 be 6d 35 db be 4b 22 d3 bc
       -0.5085116 -0.486234 -0.42814198 -0.025773188
000080 3e 6a ee be 63 1a dc bc a5 5b c9 be 9a 80 83 bf
       -0.4656543 -0.02686805 -0.39327732 -1.0273621
000090 c3 e9 4c be 63 ee 54 bd c1 3d ce be 40 42 49 bf
       -0.20011048 -0.051985156 -0.4028149 -0.78616714
0000a0 96 ee a2 bd f2 92 98 be 22 13 0e be 26 70 29 c0
       -0.07955663 -0.2979961 -0.13874486 -2.64747
0000b0 b3 d1 24 c0 2e b5 d3 be 19 94 9a bd b5 09 11 3e
       -2.575299 -0.41349167 -0.07547779 0.14163859
0000c0 6a 5d 54 bf 19 89 a0 bf a2 d5 4b c0 bc 24 62 be
       -0.8295504 -1.2541839 -3.184914 -0.22084326
0000d0 31 cd e1 be f9 f9 da bc bd 88 4f 3f da 5a 56 bf
       -0.4410186 -0.026730524 0.8106802 -0.8373238
0000e0 b5 bd b9 be 12 d4 e1 bd d8 a2 c5 be fc 80 b9 be
       -0.36277547 -0.11026777 -0.38600802 -0.3623122
0000f0 8c 60 e7 be 37 78 0d bf 56 a6 1f bf 9d 45 d3 be
       -0.45190847 -0.5526156 -0.62363183 -0.41264048
000100 86 75 06 bf 9e bd 21 be 2c a4 97 be f2 2e a3 bd
       -0.52523077 -0.1579499 -0.2961744 -0.079679385
000110 c6 39 f2 be 50 cd aa be 0c 03 d4 be c8 2b ab bd
       -0.47309703 -0.33359766 -0.41408575 -0.0835796
000120 fc 9f 91 be 0e 38 83 3e c7 f5 8b bf e2 42 0d bf
       -0.2844237 0.25628704 -1.093438 -0.5518018
000130 d3 98 a2 be 2a 2a 46 be fe dd a6 3e 76 83 24 be
       -0.3175722 -0.19352022 0.32591242 -0.16065773
000140 48 98 17 be 38 79 ef be 46 42 4d be b4 1a a2 be
       -0.14804184 -0.4677217 -0.20044813 -0.31660998
000150 5f 59 89 bd a4 1b b4 be 53 6c dd be 14 16 f5 be
       -0.06706499 -0.35177338 -0.43246707 -0.47868407
000160 96 fb 3c bd c8 1d 24 be 6d 81 ca be 5b 1d c3 3e
       -0.04613837 -0.16026986 -0.3955187 0.38108334
000170 21 3c 2e be 00 27 19 3e 19 a5 8d bc 48 27 b6 be
       -0.17015125 0.14956284 -0.017290639 -0.35576844
000180 71 73 6e bf 62 e7 a2 be d4 07 eb 3d 3f 5f 04 c0
       -0.931449 -0.31817156 0.114761025 -2.0683134
000190 1e 6b cb be a7 38 12 be b1 10 af bd ac be b5 be
       -0.3973016 -0.14279424 -0.085481055 -0.35497034
0001a0 20 95 d4 bf 27 a1 d7 bd 91 ee 0a be 64 f4 f0 be
       -1.6608009 -0.10528784 -0.13567568 -0.47061455
0001b0 72 82 3d bf 72 2a 9a bf 57 1c 64 be 85 bf a4 be
       -0.7402717 -1.2044203 -0.22276436 -0.32177368
0001c0 f6 d0 01 bf 2e fa 87 be 97 4b 47 bf af 3e 24 be
       -0.50709474 -0.2655806 -0.77849716 -0.16039537
0001d0 b5 08 76 3e 1f 55 13 3f 8b 13 87 bf b0 dc 94 be
       0.24026759 0.5755176 -1.0552839 -0.2907462
0001e0 3b 2f 0e bf 51 b8 0d bf 56 a5 93 be 0c 0e 7c bd
       -0.5554082 -0.5535937 -0.2883708 -0.061536834
0001f0 ce 3c d9 be 8e 40 04 bf f0 02 fd bd 4d d7 3b be
       -0.42429203 -0.51661 -0.12354076 -0.1834385
000200 f3 ac 0d bf fa 55 f9 3e 6f d6 63 be aa fe 86 bf
       -0.55342025 0.48698407 -0.22249769 -1.0546467
000210 e2 9f 04 be ac da b6 be d9 f6 57 bf d0 f5 c0 be
       -0.12951615 -0.35713708 -0.84361035 -0.3768754
000220 6a 96 90 3d 34 4f fc be c6 8d 4c be 8d e8 b4 bb
       0.07059939 -0.49279177 -0.19975957 -0.0055208863
000230 37 9e 80 bc b9 37 b0 be 31 62 ac be d2 e8 9c be
       -0.015700443 -0.34417513 -0.33668664 -0.30646378
000240 47 8f 1c 3f 82 e8 04 bf c9 0b df bd 38 06 0d bf
       0.61156124 -0.5191728 -0.1089092 -0.55087614
000250 37 47 90 bf fe 17 49 be f6 81 4d bf df 2e ec be
       -1.1271733 -0.19638059 -0.8027643 -0.4612951
000260 9e 93 37 be f4 aa 4b be ba 52 91 be 7e 85 94 bf
       -0.17927405 -0.19889432 -0.28383428 -1.1603239
000270 d3 e6 8d bf 46 c0 ea be 60 4a 85 be ce bf 2e be
       -1.1086067 -0.45849818 -0.26033306 -0.17065355
000280 3d de 12 c0 b2 87 01 be 2b 3f 12 bf 96 b6 c4 bf
       -2.2948143 -0.1264942 -0.57127637 -1.5368221
000290 6c 64 8b bd bc 55 08 c0 ff f9 27 be 4a a5 7b bf
       -0.06806263 -2.1302328 -0.1640396 -0.98299086
0002a0 1b a3 54 bf 31 fa aa bf f3 bf 9a be 74 16 09 bf
       -0.8306138 -1.3357602 -0.3022457 -0.53549886
0002b0 47 18 c0 bf 47 5b 2f bf 35 5c da be 4c b6 5e be
       -1.5007409 -0.68498653 -0.42648473 -0.21749228
0002c0 a0 35 1b bf a0 97 00 bf 94 e3 71 be 66 d6 bf be
       -0.606287 -0.5023136 -0.2362197 -0.3746826
0002d0 21 2a c1 bf da 7e 53 bd 18 52 e9 bd 12 1c bb 3e
       -1.5090982 -0.051634647 -0.11392611 0.36544853
0002e0 ce 92 86 be 82 fe c9 bd e8 fe f0 3e ab d1 04 bf
       -0.26283878 -0.09862997 0.47069478 -0.5188243
0002f0 f2 85 e0 be 74 93 ea be 71 2a 66 bd 22 4f 5b be
       -0.43852192 -0.45815623 -0.05619282 -0.21416906
000300 bd 3c 7d bd 64 0e 92 bf 70 87 b5 be ea 5d 83 bf
       -0.061825503 -1.1410642 -0.35454893 -1.0263035
000310 04 11 9b bf ad 85 c0 be 38 ac 61 3e 66 b3 e0 be
       -1.2114568 -0.37601987 0.22038352 -0.4388687
000320 ae 49 f5 be a2 bc 13 bf fb 9b 0f bf 7c bf 52 c0
       -0.47907776 -0.57709706 -0.5609738 -3.2929373
000330 60 14 60 bf 27 7e f1 be b3 77 7c be 40 eb ad be
       -0.8753109 -0.4716656 -0.24655037 -0.33968544
000340 69 e1 b7 bf 84 69 79 3f 98 91 f6 be 56 2b f9 3e
       -1.4365665 0.9742663 -0.48157954 0.48665875
000350 b1 14 c1 be 3a 14 55 bf 88 6b 3e be f5 e1 c1 bc
       -0.377111 -0.8323399 -0.18595707 -0.023667315
000360 d0 a5 8d be 7e 8b 13 c0 39 f6 ba bd 35 bd b7 be
       -0.27665567 -2.305389 -0.091289945 -0.3588654
000370 aa 79 1f be 6b 9f 67 be 62 d0 08 bd a2 c1 c4 be
       -0.15573755 -0.22619407 -0.033401854 -0.3842898
000380 76 98 c8 be 0b f3 9c bf 1b 04 0b c0 e1 5a 83 be
       -0.39178818 -1.2261671 -2.1721256 -0.25655273
000390 7e 28 7f be eb 59 e5 be 10 5e bb be 26 94 ba be
       -0.2491779 -0.44795164 -0.36595201 -0.36441153
0003a0 9c b1 9a be a7 c3 cf be f4 d9 0a bf c1 11 a9 be
       -0.3021363 -0.40578958 -0.5423882 -0.33021358
0003b0 76 8d 0f bf f2 b2 0f bf 08 9c cc bc d1 a4 4f 3f
       -0.5607523 -0.56132424 -0.024976745 0.81110865
0003c0 63 87 00 bf e5 39 c7 be 99 c3 03 be 40 49 02 be
       -0.50206584 -0.38911358 -0.12867583 -0.12723255
0003d0 fa 38 15 be cb a1 f6 bc bb a7 ed bd 5b 32 5f be
       -0.14572516 -0.030106446 -0.11604258 -0.21796553
0003e0 79 d7 a3 bd b0 e6 0c bf 06 d3 24 c0 4a 1e 0f bf
       -0.080000825 -0.550395 -2.5753798 -0.5590559
0003f0 93 03 04 c0 7c 97 3c 3f d8 44 6f bd 39 83 c1 be
       -2.0627182 0.73668647 -0.058415264 -0.37795427

fc2.weight f4 [300, 401]
000000 98 ba de 3c f7 96 61 be f1 96 45 be 85 60 99 be
       0.027188584 -0.22030245 -0.19295861 -0.2995645
000010 6d 8e 99 be 20 1f 6b 3c c5 ad fb be 65 08 67 3d
       -0.29991475 0.0143506825 -0.49156013 0.05640449
000020 6e ba d7 bd dd 5f 72 be 49 33 bc 3e 42 7a 2f be
       -0.105336055 -0.23669381 0.36757877 -0.17136481
000030 a7 3f f0 3d 54 c2 0c bc c8 aa 84 3d 50 ad 3f 3e
       0.11730891 -0.008591253 0.064778864 0.18718457
000040 28 e5 dd 3c 00 39 0c bd cf 13 34 be 44 ac 3c bd
       0.02708681 -0.034234047 -0.17585681 -0.046062723
000050 79 f4 e3 bc ac 4a 04 3d dc 04 47 bd af ab 5d bd
       -0.027826535 0.032297775 -0.04858862 -0.05411881
000060 61 1e 94 be d9 c7 bb bd 62 11 98 bf d7 a5 1a bd
       -0.28929427 -0.09168977 -1.1880305 -0.037755813
000070 bc 4e a4 3c b6 43 24 3d 41 6a 1d bd f4 fa e6 3c
       0.020057075 0.040103637 -0.03843141 0.028195836
000080 d0 d2 6a 3d 9f 25 15 be 68 59 54 3c 32 7a d0 be
       0.057329953 -0.14565133 0.012960769 -0.40718228
000090 84 6a 0c be be d0 fc bd 4d 8b 0d bd 92 1b 8e bd
       -0.13712507 -0.12344502 -0.034556676 -0.06938852
0000a0 31 cc ae be 00 cc da 39 54 66 be 3c f0 f7 1e bd
       -0.3414016 0.00041732192 0.023242153 -0.03881067
0000b0 e8 c3 8a bf 28 4a 0e 3c 5f ad 28 be f1 e2 ca bd
       -1.0841036 0.008684672 -0.16472386 -0.09906567
0000c0 ca df 6f be 71 13 99 be 01 2e a7 3e 9c 01 61 bd
       -0.23425213 -0.29897645 0.32652286 -0.054933175
0000d0 a0 68 c5 bb dd a7 32 be cf 69 e6 bd ad 03 fb 3e
       -0.006024435 -0.17446847 -0.1125065 0.49026242
0000e0 23 2d 36 be b7 80 40 be e1 4c af be d4 f0 03 3c
       -0.17790656 -0.18799101 -0.3423834 0.008053023
0000f0 18 3f 2a 3d 41 40 6c bd 33 76 88 be e0 f5 92 bb
       0.041564077 -0.057678465 -0.2665268 -0.004484877
000100 d0 1a 3b bb dd 11 29 be a7 aa 12 3c b4 e5 57 bc
       -0.0028549917 -0.1651072 0.0089518195 -0.013177324
000110 56 1f 65 bd 52 11 52 3d 92 d7 47 3d 01 02 a2 bb
       -0.055938087 0.05128605 0.04878957 -0.0049440865
000120 e8 9e 95 bd df 0a 03 bf 31 6a 23 be 10 c9 0d bb
       -0.073056996 -0.5118846 -0.15958478 -0.0021634735
000130 80 21 b9 bc 5c ff 42 3d 15 ab f7 bc 10 63 7c bb
       -0.022598982 0.04760681 -0.030232945 -0.0038511194
000140 cf da b2 bd b4 2c b0 be 90 27 2b 3d 3f 1c a7 bb
       -0.08733141 -0.34409106 0.041785777 -0.0050998027
000150 7b 0d e2 3c 00 65 d0 3c 43 e5 d2 bd 8d 44 0f bd
       0.027594319 0.025438786 -0.102976345 -0.034977484
000160 bf 43 a5 be 5c 16 77 be 8a 7d 13 3d 2a 37 08 bd
       -0.3227825 -0.24129623 0.036008395 -0.033255734
000170 f8 a9 aa be 79 ee f2 be e0 3b 02 be 80 b8 f1 3b
       -0.333328 -0.47447565 -0.12718153 0.0073767304
000180 27 a7 b8 be 0d 7f 46 be 48 77 20 be eb 72 07 be
       -0.36065027 -0.19384404 -0.15670502 -0.13227431
000190 d0 d0 9d 3b 02 2a 3a 3d 6d 3d f0 bd 0c b7 c7 3c
       0.004816152 0.045450218 -0.11730466 0.024379276
0001a0 1a 2f 9b be a9 7f da be d5 8b b3 be c8 a4 3c bc
       -0.30309373 -0.42675522 -0.3506762 -0.011513896
0001b0 da f0 88 be df c8 26 3f 9d 56 32 be 06 4a 10 3d
       -0.26746255 0.65150255 -0.17415853 0.035226844
0001c0 f2 de d6 bc 70 a2 3e 3d e9 d9 fc bd 1f 5c da be
       -0.026229355 0.04654163 -0.123462506 -0.42648408
0001d0 68 02 ee 3d 61 28 22 3d ca 94 fe bc 18 79 50 be
       0.11621553 0.03958929 -0.031076808 -0.20358694
0001e0 d0 c1 56 3d 9f 02 f3 3d 52 f5 1d 3d 13 3e f5 bd
       0.052430928 0.11865734 0.038564034 -0.1197473
0001f0 0a ed 53 bd 98 14 3a 3d 15 ff 1d be fc af 12 3d
       -0.05173973 0.045429796 -0.15429337 0.035812363
000200 d0 e0 08 3d 32 8e d4 3d 49 93 ca be c5 08 cd bd
       0.033417523 0.10378684 -0.39565495 -0.10011438
000210 43 3d c2 be 74 8b 34 be 27 7b 4b be c5 2c 73 3d
       -0.37937364 -0.17631322 -0.19871198 0.059368867
000220 11 ca 2d be 12 c1 11 bd ee 6d 52 be e1 4c d9 be
       -0.16971613 -0.035584517 -0.20549747 -0.42441466
000230 47 e9 9b be c0 b9 9f be 9b eb 17 bf a7 c6 aa bd
       -0.30451414 -0.31196404 -0.5934388 -0.08338671
000240 d2 d5 56 bc 38 20 a1 3c ad 6c eb bc 82 9c 09 3d
       -0.013112502 0.019668683 -0.028738344 0.033596523
000250 fe 93 37 3d 04 a7 0a bd 1c 67 29 be 28 aa 1b 3d
       0.04481887 -0.033850685 -0.1654324 0.03800407
000260 a4 d1 53 bd f7 bb 40 bd 1c 8b 0f 3d ae 01 69 be
       -0.0517136 -0.047054257 0.035044774 -0.22754547
000270 57 eb 77 be 7a ba 5c bd fc 02 f9 3c 78 f4 00 3d
       -0.24210869 -0.053888775 0.03039693 0.031483144
000280 26 59 d6 be c1 42 04 be 12 1f 06 be 34 9a 23 3d
       -0.4186489 -0.1291609 -0.1309779 0.03994198
000290 5e f6 78 be b7 2a 90 be 3d c2 67 bd 6b 41 a7 be
       -0.24312732 -0.2815759 -0.056581724 -0.32667097
0002a0 26 c1 13 be 6a 8c 56 3f 20 22 33 bd 83 61 bb bc
       -0.14429149 0.83808005 -0.043733716 -0.022873646
0002b0 c9 1d 08 bf fc 1a 3a be 36 86 57 3d 80 5c 41 3b
       -0.5317045 -0.18174356 0.052618228 0.0029504597
0002c0 0e 1f 12 bd a2 9c 1e 3d 68 be 25 bd bc be de bc
       -0.035674147 0.038723595 -0.04046479 -0.027190559
0002d0 a4 15 74 be 88 03 ed bd aa 09 92 3c ac be b3 bc
       -0.2383638 -0.11572939 0.017826874 -0.021941505
0002e0 74 31 42 bd b7 81 68 3b 23 be ea be 16 0d 2c 3d
       -0.047410443 0.0035477707 -0.45848188 0.042004667
0002f0 38 d4 39 3c ec ee 1e 3d 98 72 8b 3b 2a 9b bd bd
       0.011342101 0.038802072 0.004255604 -0.09258111
000300 a3 d4 72 3d e4 5d 57 3d 9e c0 98 bd c4 30 d4 bd
       0.059284817 0.052579775 -0.07458614 -0.10360864
000310 dd eb c3 3e 3e 97 a8 bc 54 92 5d 3e d8 b4 69 bd
       0.38265887 -0.02057993 0.21637851 -0.05705723
000320 30 d1 61 3d 94 db cf be 64 12 1d bd 91 1a 31 3f
       0.055131137 -0.40597212 -0.038347617 0.6918116
000330 d2 b1 d9 be c5 9f 93 bd 2d 98 94 be 08 81 ea 3c
       -0.4251848 -0.07208208 -0.2902235 0.02862598
000340 65 29 99 be 28 5a b5 bd d6 5a 43 3d a7 7d b4 bc
       -0.29914394 -0.088550866 0.04769405 -0.022032572
000350 e5 cd 57 bd 23 3f 84 bb b8 2a 5b bd 88 34 8c bd
       -0.05268659 -0.004035847 -0.053507537 -0.06845957
000360 00 b0 7e be a4 d0 fa bd 9f 69 47 be 23 45 5c bd
       -0.24871826 -0.12246826 -0.19473885 -0.05377687
000370 f2 b4 9e bc 82 ec 82 3d 84 97 30 bd 5f a4 05 be
       -0.01937339 0.063927665 -0.043113247 -0.13050984
000380 19 b8 92 be 2d 78 2a bf af 85 7d 3e 64 72 5a be
       -0.2865608 -0.66589624 0.24758027 -0.21332699
000390 03 db 02 3d e4 fe 70 be ca d5 17 be 49 76 45 bd
       0.031947147 -0.23534733 -0.14827648 -0.04820851
0003a0 83 f3 f4 bc 90 ca cd 3c a0 06 b6 bb 18 00 b0 bd
       -0.029901272 0.025121003 -0.005554989 -0.08593768
0003b0 00 2a 79 bc 6b 03 53 3c 3a 3e 79 be 89 46 73 bd
       -0.0152077675 0.012879233 -0.24340144 -0.05939344
0003c0 c2 3f 0a bd 08 bc 57 bd 34 14 3e bd 8a bb ed bd
       -0.03375221 -0.052669555 -0.046405986 -0.11608036
0003d0 14 6e fa 3c e5 aa 02 3d fe 5b 7b be 60 7a 4a 3d
       0.030570067 0.03190126 -0.24546811 0.049433112
0003e0 6f 08 46 3d 07 b6 58 be 9b cd 3d 3f 59 72 d2 3e
       0.048347887 -0.21163188 0.74141854 0.41102865
0003f0 b4 0e 03 40 c0 7f 19 3d d9 ed 1a 39 fe 41 42 3d
       2.0477724 0.037475348 0.0001477519 0.047426216

fc2.bias f4 [300]
000000 e3 ec 5e be 5a 34 5a bd c8 4c 82 bf 99 9f 15 be
       -0.21770053 -0.053272583 -1.0179682 -0.14611663
000010 c5 79 28 bd 3a 50 7e 3d e0 c7 f3 bd 89 32 8f 3f
       -0.041131753 0.06208823 -0.119033575 1.1187297
000020 fe 37 e1 bb a5 a2 1e be 81 8b d9 bd ea a9 21 be
       -0.00687313 -0.15491731 -0.106223114 -0.15787473
000030 fa be 49 3e 33 77 ac bc db 48 86 bd ab d2 ab bd
       0.19701758 -0.021052932 -0.06556865 -0.08389791
000040 c3 fe 6b 3d 11 af 78 be 6c 86 aa be f6 b3 db bc
       0.057616007 -0.24285533 -0.3330568 -0.02681921
000050 f3 42 38 3f e9 f8 a8 bd d4 70 81 bd 63 7b 2e be
       0.71977156 -0.08250601 -0.063203484 -0.17039256
000060 3c ad 4c be 6a 0d 7f bd c7 c0 87 bd 0a 7c c6 bd
       -0.19987959 -0.062268652 -0.06628566 -0.09691627
000070 74 6e b4 bd 69 9b 78 be d3 fd 25 be 51 0d 23 3e
       -0.0881013 -0.24278034 -0.16210108 0.15923049
000080 67 e2 10 3f fb 0a 88 bd a1 06 73 bd 9c 27 62 be
       0.5659546 -0.06642719 -0.059332494 -0.22085422
000090 61 33 e5 bd 48 f3 77 bd f8 15 95 bd ac 8a 2f be
       -0.111914404 -0.060534745 -0.07279581 -0.17142743
0000a0 ae ee 48 3f bb 02 8b 3f 92 7f 3a bd e2 c8 d8 be
       0.78489196 1.0860208 -0.045531817 -0.4234076
0000b0 bf 8d 49 bc d2 b8 0c be ba 79 ca 3e 94 d2 2e 3f
       -0.012301861 -0.13742378 0.39545995 0.68290067
0000c0 43 c1 6c bc b1 ae 1e be 29 80 0a 3f db 5a 10 bf
       -0.014450374 -0.15496327 0.54101807 -0.56388634
0000d0 0b b3 dc bd c9 9f e0 bc 79 a6 73 bd 43 59 d5 bd
       -0.10776337 -0.027419941 -0.059484933 -0.10417416
0000e0 b4 f0 d3 bd 43 61 f6 bd f4 98 4c bd 9f e1 dd bc
       -0.10348645 -0.1203027 -0.049950555 -0.027085124
0000f0 97 18 08 be d4 b0 a3 3c 14 a5 47 be 49 25 04 be
       -0.1329063 0.01998178 -0.19496566 -0.12904848
000100 9e 92 86 3f b0 e2 d8 bc 05 27 da bd 33 73 cd bc
       1.0513494 -0.02647528 -0.10651974 -0.025079345
000110 35 67 26 be 6d b4 03 be 6d 4d 37 3c 2a 85 66 3f
       -0.16250308 -0.12861796 0.011187893 0.9004694
000120 e4 f5 ca 3e 62 c7 82 3f 38 7d 18 bd 1b 26 50 bd
       0.39640725 1.0217097 -0.037228793 -0.05081759
000130 35 4b d5 bd 66 3a f8 bd 6c 50 e7 bd 1a 86 ae be
       -0.10414735 -0.121205136 -0.11294636 -0.34086686
000140 d6 56 66 3b 65 0e 29 be c1 61 55 bd c3 23 e5 bd
       0.0035146973 -0.16509397 -0.05209518 -0.11188462
000150 50 35 20 3f f2 79 a7 bd f8 3c 6a bd fc f0 9e bd
       0.6258135 -0.08177556 -0.05718705 -0.07760808
000160 51 ed de bd d0 c8 00 bd 32 91 1a 3f b9 57 81 bd
       -0.10885108 -0.03144151 0.603778 -0.0631556
000170 ea 60 e1 be 0c 01 59 3f 3d 0f 9b 3c 5f 6a 66 bd
       -0.44019252 0.8476722 0.018928165 -0.056253787
000180 67 2a 98 be 94 85 59 3e 5e 77 b8 3e 8d 3d df 3e
       -0.2971985 0.21242362 0.3602857 0.43601647
000190 f5 77 bd 3e ec bd 27 3e 32 4f 52 bd c7 83 f9 bd
       0.37005582 0.16381043 -0.051345058 -0.12183338
0001a0 c1 8b 00 bb f6 b3 dd bd 6a 39 c0 bd a7 b2 5b 3f
       -0.001961455 -0.108253404 -0.09385951 0.85819477
0001b0 d6 d2 8c bc 68 78 67 bd 88 30 fa bd d6 ee 28 bd
       -0.017190378 -0.056511313 -0.12216288 -0.041243397
0001c0 d5 f7 57 3f 3b 33 6e bd 7e b7 bf bd b6 cc 00 be
       0.84362537 -0.058154326 -0.0936117 -0.12578091
0001d0 74 af 0b 3e 99 a3 52 be b1 91 35 3f f2 6f 68 bd
       0.13641149 -0.2057022 0.7092543 -0.056747384
0001e0 1f 2d 3c bd 96 15 41 3f 54 8f 6b 3d d8 78 96 3c
       -0.04594147 0.7542356 0.057509735 0.01836817
0001f0 3d 3f b8 bd c7 29 76 be 22 63 88 3d f7 76 de bd
       -0.08996437 -0.24039374 0.06659533 -0.108625345
000200 03 16 d8 3c fb bc 30 bd 77 62 92 bc 01 39 f0 bd
       0.026377684 -0.043148976 -0.017869217 -0.11729623
000210 e5 db 92 bd 62 d2 65 bd 5c 31 7c 3f 7d d4 a6 3d
       -0.07170848 -0.05610884 0.98512816 0.08145998
000220 57 14 02 bd 89 ee 1e bd ff 8d 38 bd 55 5d 91 bd
       -0.03175768 -0.038801704 -0.045057293 -0.0709788
000230 81 43 f2 bd ef cb a9 bd da de 20 be aa 2d 20 be
       -0.118292816 -0.0829085 -0.15710011 -0.1564242
000240 fc 89 71 bc bb bb 7a 3e 5b 36 bb bd 81 80 54 bd
       -0.014742371 0.24485676 -0.09141227 -0.051880363
000250 59 38 17 bd f1 3d 91 3f d6 e3 45 bd cd 8b 8d 3e
       -0.03691897 1.1347028 -0.048312984 0.27645722
000260 d9 33 be 3b 63 ec 4c bd d0 42 43 bd dd 26 1d bd
       0.0058045206 -0.050030123 -0.04767114 -0.03836714
000270 8d 1c d1 3c 8e 93 99 be 15 74 50 3e 31 48 ae bd
       0.02552631 -0.29995388 0.20356782 -0.08509863
000280 e0 8d f3 bd 29 90 db bd 4e 9d 72 bd 5c fb 57 bd
       -0.11892295 -0.10720856 -0.05923205 -0.05272995
000290 fd 8d fa bc 5f df a9 3c a9 cb e4 bd da 58 07 bb
       -0.030585283 0.020736394 -0.111716576 -0.0020652325
0002a0 f5 fb 92 bd 9d 91 01 be eb 36 70 bc 50 1e 7a 3f
       -0.07176963 -0.12653203 -0.014661531 0.97702503
0002b0 c9 73 68 bd 27 31 f8 bd 27 5e 29 be 71 b4 fe bd
       -0.056751046 -0.1211875 -0.16539823 -0.1243676
0002c0 bf 07 dc 3c e1 f1 57 bd 19 6e fd bd e5 81 00 bd
       0.026859162 -0.052720908 -0.12374515 -0.031373877
0002d0 78 78 4c be 3d aa 28 be ab 2a 05 3e 07 6d 85 bd
       -0.1996783 -0.16471191 0.13004558 -0.06514936
0002e0 b8 ef 73 bd 93 26 13 be be e9 be bd 5e 9b 82 3f
       -0.059554785 -0.14370184 -0.093219265 1.0203664
0002f0 92 b3 27 3e 8f a8 9d bd 92 45 bb be fa fe e9 bd
       0.16377094 -0.076981656 -0.36576515 -0.11425586
000300 69 16 b6 bd cd 36 c9 bd 0c c5 a2 bd 2e c3 d2 bd
       -0.08890993 -0.098249055 -0.0794774 -0.10291134
000310 e8 0b 7d 3c d4 68 87 bd a7 b8 d5 bd 61 1b 93 bd
       0.015444733 -0.06611791 -0.1043561 -0.071829565
000320 67 03 fa bd d9 77 ef bc 84 9b 4b bc 64 5d a2 3e
       -0.1220768 -0.029231953 -0.0124272145 0.31711876
000330 ff ef 00 bc 78 aa f1 bd bd 6e 74 3f 32 b7 d1 bc
       -0.0078697195 -0.118000925 0.95481473 -0.02560005
000340 26 a9 a2 3e 9f c8 04 be 92 48 3d 3c 5b a4 18 bd
       0.31769675 -0.12967156 0.011552947 -0.037266117
000350 d9 9d 1a bf 13 e3 21 3c 17 bd 68 bd 05 bb c7 3d
       -0.60397106 0.009880799 -0.056820955 0.09752468
000360 45 2d 8e 3e 8a ad 3a bd 47 00 c3 bd 99 f3 db bc
       0.27768913 -0.045575656 -0.09521537 -0.026849555
000370 1d 21 d8 bd fa f5 16 bd 88 1f f0 bd 17 19 1f be
       -0.10553191 -0.036855675 -0.11724764 -0.15536915
000380 e8 f2 2e be 23 0c ce bd e1 b2 a0 3f 5e 46 0a bf
       -0.17084849 -0.10060909 1.255459 -0.5401362
000390 f6 ff 75 bd c0 76 9b bc c8 5e ce 3d ff 82 31 be
       -0.060058556 -0.018977523 0.10076672 -0.17335127
0003a0 aa 37 0f 3e 04 a3 23 3f 73 e5 4e 3d 75 94 93 3f
       0.13986078 0.6392062 0.05051179 1.152968
0003b0 39 b7 4d bd b1 2f 4d 3f 69 75 8e bd 99 d8 aa bd
       -0.050223563 0.80150896 -0.06955988 -0.08342094
0003c0 3b 39 39 bd 4a 81 dc bd 41 c9 a5 bd 97 45 10 be
       -0.045220595 -0.107668474 -0.08095027 -0.14089046
0003d0 75 bf da be ee ca 63 bd 23 5a 91 3e 2c 20 1d 3e
       -0.42724195 -0.05561345 0.2838908 0.15344304
0003e0 74 b9 59 bf f2 10 49 bd 5d a9 a1 bd 09 be 83 3e
       -0.85048604 -0.049088426 -0.078936316 0.25730923
0003f0 88 d1 22 3e 13 c6 82 bd bd ed 81 bd 67 16 5e bd
       0.15900242 -0.06385436 -0.06344173 -0.054220583

fc3.weight f4 [1, 300]
000000 2c ca b7 bc ed 5f 91 3c 04 ce 43 40 a0 e9 80 3c
       -0.02243527 0.017745936 3.0594492 0.015736401
000010 4f 28 28 bc 2b 40 bc be ca 42 5e bd 81 4b 3c bf
       -0.010263517 -0.36767706 -0.054262914 -0.7355271
000020 d4 96 34 bc 36 df 0d 3d 41 1b 50 3d 14 a2 2d 3c
       -0.011022288 0.0346367 0.05080724 0.0105977245
000030 ef 89 b7 3f 82 23 44 bc 29 c7 51 bd b2 06 35 3d
       1.4338969 -0.011971356 -0.051215325 0.04419584
000040 06 39 22 3f eb 42 2f bd 30 aa 72 3d 17 df 1b 3d
       0.6336826 -0.042788427 0.059244335 0.038054552
000050 79 4c 3b bf aa 6f 13 3d b0 a9 41 3a e4 49 52 3f
       -0.73163563 0.035995163 0.0007387651 0.82144
000060 00 5f 9a c0 81 58 56 3d a4 93 87 bc 7b 28 59 3d
       -4.8240967 0.052330498 -0.016549893 0.05301712
000070 5b c4 b9 bc da f1 0e 40 87 75 5d 3d 13 c3 03 bf
       -0.022676637 2.2335114 0.05406716 -0.51469535
000080 71 c5 8d 40 45 a8 9f 3c c4 0e 80 bd f6 2f bc 40
       4.4303517 0.019489417 -0.06252816 5.8808546
000090 8e 6e b9 bc 9b 44 92 bc 4e 20 f4 bc 6b 23 01 c0
       -0.022635724 -0.01785498 -0.02980056 -2.0177867
0000a0 bc 76 7a be eb 78 41 bf 8f 36 5c 3d 2b bc b9 bf
       -0.24459356 -0.7557513 0.05376297 -1.4510549
0000b0 58 eb 5e 3b 5b 3c 05 3d 12 03 4b c0 66 3e bf be
       0.0034014788 0.032528263 -3.1720624 -0.37352294
0000c0 f5 d0 dc 3c ea 91 0c 3d 61 46 22 c0 83 f1 0c c0
       0.026955107 0.034318842 -2.5355456 -2.2022407
0000d0 da 63 19 3d 06 7a 55 3d 29 6a 56 bc 64 08 64 3d
       0.03744874 0.052118324 -0.013086834 0.055672064
0000e0 f2 21 61 3d 83 49 40 bd 6c a3 1b bd ce 8c 85 3c
       0.054964013 -0.046945106 -0.037997648 0.016302492
0000f0 03 1f f3 3c d0 e0 fe bc 2d d8 98 be d7 b2 2e 3c
       0.029677873 -0.031113058 -0.2985243 0.010662756
000100 23 a0 02 bf 61 d2 8c bc d0 f1 eb 3c 6e 63 28 3d
       -0.510256 -0.01719016 0.028801829 0.04111045
000110 f4 53 ae 3f aa 0b b5 bc 3b fe 26 bc 89 1d 93 bf
       1.361937 -0.022100288 -0.010192449 -1.1493388
000120 4c 81 63 bf 5b 4f 56 be 49 db 56 bd ab e4 31 bc
       -0.88869166 -0.20928709 -0.05245522 -0.010857741
000130 e8 41 50 3d f4 65 4d 3d bb f3 41 bd 42 9c 00 c1
       0.050844103 0.05014606 -0.04735158 -8.038149
000140 dc 10 90 3c 8b 0c 79 3c 0d 39 30 bc 99 05 83 3d
       0.017586164 0.015200744 -0.0107557895 0.06397552
000150 a8 2e fd bd bd cc 1c bc f3 af d3 bc 7a 77 0f bc
       -0.123624146 -0.009570298 -0.025840735 -0.008756513
000160 5b 8b d4 bc 24 61 51 3d af 49 31 40 8f 12 1e 3c
       -0.025945356 0.05111803 2.7701223 0.009647979
000170 93 51 30 3d 06 2b 6a bf 6f bf 3a bc 5c a7 a1 bf
       0.043046545 -0.914719 -0.01139818 -1.2629199
000180 ec 5c 48 bf b0 2e 12 40 df 8a ef 3f 59 e4 02 c0
       -0.7826679 2.2840996 1.8714255 -2.0451872
000190 d7 4a ab be fd 54 22 40 af 0f 0a 3d c7 42 5d 3d
       -0.33455536 2.5364373 0.033706363 0.054018762
0001a0 03 24 ab 3c 79 4a 78 bd df 59 17 3d 96 f0 ad be
       0.020891195 -0.060617898 0.036950942 -0.33972615
0001b0 d6 ab 71 3d 46 ff 7d 3f a2 1d 26 bd 02 31 19 bc
       0.059001766 0.9921764 -0.040555604 -0.009350063
0001c0 c5 86 29 c0 af d7 70 3d fb 1f 67 bd 21 ea 00 3d
       -2.6488507 0.058799442 -0.056426983 0.031473283
0001d0 5f 4a bb bf 66 d9 ac 3c 2b aa 14 3f 10 32 66 3f
       -1.4632071 0.021099757 0.58072156 0.8992014
0001e0 d3 6d 86 3c fa f6 04 c0 ba 43 03 c0 3b ef 22 bc
       0.01640979 -2.0775743 -2.0510087 -0.009944732
0001f0 e4 bd 7b 3d a7 c8 cb 3f 92 ad 05 bf ee 6b 1d 3d
       0.06146039 1.5920609 -0.5221797 0.038433008
000200 cc 64 df bc 52 ce 1e 3d 0f ca 1e 3d 66 a1 94 bd
       -0.027269743 0.03877098 0.038766917 -0.07257347
000210 20 8c 59 3d 35 e3 34 3d ad aa d1 bf ae b3 ef be
       0.05311215 0.044161994 -1.6380211 -0.46816772
000220 bf 78 a6 3c be 64 2b bc 5d ca 5b 3d 9c 28 73 bd
       0.020321248 -0.0104610305 0.053659786 -0.0593649
000230 6d 62 4b bd 25 e7 3d 3d e2 85 a4 bc 29 c3 91 3c
       -0.049654413 0.046363015 -0.020083372 0.017793255
000240 34 5f 22 bc 90 ab ca 40 89 40 94 3d d3 31 57 3d
       -0.0099103935 6.3334427 0.072388716 0.05253775
000250 a0 2e ac bc 9f 81 7d be 75 53 47 bc 61 ba 9b bf
       -0.021018326 -0.24756478 -0.012165894 -1.2166253
000260 c5 61 6f bc c1 81 27 bc 8f 37 63 bd 3c ff 32 bd
       -0.014610712 -0.010223807 -0.055472907 -0.04370044
000270 2f fe 42 bc a8 dd 9d 3f 04 0e 1b bf 55 e9 22 3d
       -0.011901422 1.2333269 -0.6056826 0.039773304
000280 c7 36 b1 3a 42 07 40 3d 0b 81 3b bd 0f b1 6c bd
       0.0013520353 0.04688192 -0.04577736 -0.057786044
000290 c3 ec 3a bc de c3 a0 3e c3 51 37 bd 59 9d 27 bc
       -0.011408987 0.31399435 -0.04475571 -0.010230386
0002a0 bb 7d 73 bd 54 03 f0 bc 93 63 2c bc 38 08 56 bf
       -0.059446078 -0.029298462 -0.010521787 -0.8360629
0002b0 2f 15 dd bc 18 3f ec 3b e8 7e 4e 3c 51 5f 7f bd
       -0.02698764 0.00720967 0.012603499 -0.06234676
0002c0 d3 d6 3e bc 79 a8 77 bd be 7a b1 3c d2 4d 4a bd
       -0.011647898 -0.060463402 0.021664973 -0.04939062
0002d0 6a 39 17 c0 69 5a 5e 3d b9 7b 2c 3f c7 44 b5 3c
       -2.3628793 0.05428544 0.67376286 0.022127522
0002e0 06 62 85 bc 5d b4 83 3c fa 09 71 bd ec f0 68 bf
       -0.016282093 0.016077215 -0.058847405 -0.9099262
0002f0 3f 43 4f bf 55 fc 3a bd 6c 14 61 40 b3 52 5a 3d
       -0.80961984 -0.0456508 3.5168715 0.053301524
000300 5b fb 88 bd 1c b8 ef 3b b4 a7 2d 3d 29 2f 17 3d
       -0.06688567 0.0073156487 0.042396262 0.03691021
000310 b9 a7 b4 c0 d6 42 62 bd fc aa 6c 3d aa bd 70 bd
       -5.645474 -0.05523952 0.05778025 -0.058774628
000320 62 7d 83 bc 20 d1 3b bc fe 39 40 bc e9 60 d0 c0
       -0.016050998 -0.0114634335 -0.011732576 -6.51183
000330 10 cd 1a 40 3e ad 7a bd 1e 65 06 bf 60 19 04 bd
       2.418766 -0.061200373 -0.5249804 -0.032250762
000340 05 e7 98 3f e9 a2 30 3d 5e 0d 15 bc 37 3f 69 bc
       1.1945502 0.043124113 -0.009097425 -0.014236263
000350 0a 3c 35 c0 dd 80 bd 40 c8 db 4d bd 5a 4a 9c 40
       -2.8317895 5.9219804 -0.050258428 4.884076
000360 df 3b f0 3f 92 7c a0 3c 94 b1 46 bd 6b 12 9c 3c
       1.8768271 0.01959065 -0.048509195 0.019051751
000370 7a 24 69 3d 45 78 c4 bc f3 30 59 3d 32 ed 09 3c
       0.056919552 -0.02398313 0.053025197 0.008418368
000380 25 7e fc 3c 9d 89 22 bd 7b 54 d4 bf 92 6f 3c c0
       0.03082187 -0.03968202 -1.6588281 -2.9443097
000390 90 ac 53 3d 7a a5 29 bc 03 0f 3e bf c1 9a d4 3c
       0.05167824 -0.010354394 -0.74241656 0.025952699
0003a0 00 d1 a0 3f c8 e7 af c0 70 d2 e3 40 19 87 2a bf
       1.2563782 -5.4970436 7.119438 -0.6661239
0003b0 57 17 fe 3c bd 35 db bf 5b f8 5a bd df 1f 68 3a
       0.031016989 -1.7125775 -0.053459506 0.0008854847
0003c0 0f da 59 3d 23 95 c0 bc 0f cb 8c bc 16 d8 a5 bc
       0.053186473 -0.023508614 -0.01718667 -0.02024464
0003d0 4b 05 a7 c0 64 cd 06 3d 57 d4 0a 40 50 7d d8 be
       -5.219396 0.03291072 2.1692102 -0.42283106
0003e0 00 6b 95 40 46 2a 60 bd 62 51 7e bd 8b d5 cf bf
       4.6693115 -0.054727815 -0.06208933 -1.6237043
0003f0 d5 3f 6a bf 60 4f 41 bd 39 a3 c3 3c 91 f6 17 3a
       -0.9150365 -0.04719484 0.023881542 0.0005796934
