RL/Pendulum/checkpoint_actor.pth (torch, 490975 bytes, 5 tensors)

fc1.weight f4 [400, 3]
0	0x3bedce33	0.007257247
1	0x3c8905ed	0.016726458
2	0xbc6b7c06	-0.014372831
3	0x3f1e5b6e	0.6185826
4	0x3ed97ec0	0.42479515
5	0xbea376cf	-0.3192658
6	0xbef75175	-0.48304334
7	0xbf8e29e9	-1.110654
8	0xbe405da7	-0.18785726
9	0x3f0fa67c	0.5611341
10	0xbf2fac38	-0.6862216
11	0xbea8eeac	-0.32994592
12	0x3d5366b1	0.051611606
13	0x3f4c39a6	0.79775465
14	0x3d4f398f	0.050592
15	0x3cb12ae6	0.0216269
16	0xbd2f2efb	-0.042769413
17	0xb8fe4000	-0.00012123585
18	0xbd4b8123	-0.0496837
19	0xbe705019	-0.23468055
20	0x3a261e80	0.00063369423
21	0xbee89977	-0.45429584
22	0xbf70b754	-0.94029737
23	0xbeb3ab99	-0.35091856
24	0x3f00ed3b	0.50361985
25	0xbf902f12	-1.1264365
26	0xbefd2ee6	-0.49449843
27	0xbdac1964	-0.084032804
28	0x3f476982	0.7789537
29	0xbbd0bc3e	-0.0063700965
30	0xbd26ca75	-0.04072042
31	0x3ad99dc0	0.0016602799
32	0x3a051880	0.0005077198
33	0x3f467a0a	0.77529967
34	0xbcd68bc5	-0.026189694
35	0x3e84c814	0.25933897
36	0xbf05b16f	-0.5222387
37	0x3f77fded	0.96871835
38	0x3d128ea1	0.035780553
39	0xbc10f3b4	-0.008847166
40	0x3cbf1812	0.023326907
41	0xbbd5bcb0	-0.0065227374
42	0x3d1e7e23	0.038694512
43	0x3c497668	0.012296297
44	0xbcb1d07c	-0.021705858
45	0x3f143caf	0.57905096
46	0x3f7e81b5	0.9941667
47	0xbdaf0b0e	-0.085470304
48	0x3f6b8ecc	0.92014766
49	0xbf7ca40f	-0.98687834
50	0xbeccb0b5	-0.39978567
51	0xbbdbc0a8	-0.006706316
52	0x3c5ff00c	0.0136680715
53	0x3ae9a7c0	0.0017826483
54	0x3f3b8f57	0.73265594
55	0xbefeef40	-0.49791908
56	0xbe9853f3	-0.29751548
57	0x3f8cfb61	1.1014215
58	0xbf5badfa	-0.8581234
59	0xbece24e7	-0.4026253
60	0xbba64550	-0.0050741807
61	0x3d06b357	0.032885876
62	0x3d444295	0.04791506
63	0xbd294e9a	-0.041334726
64	0x3ca7aaa2	0.020467106
65	0x3c7df53c	0.015500363
66	0x3e53cbb7	0.2068318
67	0x3edf57b7	0.4362161
68	0xba0bc9c4	-0.00053324946
69	0x3b222380	0.0024740398
70	0x3ccf8366	0.02533121
71	0xbc28f038	-0.010311179
72	0x3dcbf1d3	0.09958234
73	0xbf5a9ae3	-0.8539259
74	0xbdca2881	-0.09871007
75	0xbf9ed592	-1.2408926
76	0xbf55632b	-0.83354443
77	0xbea10814	-0.31451476
78	0xbf1127b7	-0.56701225
79	0xbf4f87df	-0.810667
80	0xbe9b7a04	-0.30366528
81	0xbb2a3db0	-0.002597671
82	0xbb72f800	-0.003707409
83	0xbb3bce80	-0.002865702
84	0x3cdb18d2	0.026745234
85	0xbcc65e4a	-0.024214882
86	0x3d33f481	0.04393435
87	0x3cdc58e2	0.026897851
88	0x3d0e41c9	0.034730706
89	0xbd298bed	-0.04139321
90	0x3bc84318	0.006111514
91	0x3d15c35b	0.03656326
92	0x3c207ca0	0.009795338
93	0xbe991d4e	-0.2990517
94	0xbf71b2bb	-0.94413346
95	0x3e6e70be	0.23285195
96	0x3d2f6065	0.04281654
97	0xbb0ab2d0	-0.002116371
98	0xbc8d1794	-0.017223157
99	0x3e0cbf9e	0.13744971
100	0x3fe38952	1.7776282
101	0x3e44f757	0.19234978
102	0xbce496c3	-0.02790392
103	0xbcdcdeb3	-0.02696166
104	0x3d331ce3	0.04372872
105	0x3ebe2b81	0.37142566
106	0x3ff6de4b	1.9286588
107	0xbd924a5d	-0.0714309
108	0x3f30b0cf	0.6901979
109	0xbd798456	-0.06091722
110	0x3e5522fb	0.20814125
111	0xbf03e8c4	-0.5152705
112	0x3f93f99b	1.1560549
113	0xbdf631ee	-0.12021242
114	0xbc8483fc	-0.016176216
115	0xbca80223	-0.020508831
116	0xbc81a4f6	-0.01582573
117	0xbef481d1	-0.47755292
118	0xbf53328f	-0.8249902
119	0xbe0fa45b	-0.1402754
120	0xbf9a5aa3	-1.205891
121	0xbea274a8	-0.31729627
122	0xbe02c25a	-0.12769452
123	0xbd40b317	-0.047045793
124	0x3d457329	0.04820553
125	0x3bce1950	0.0062896386
126	0x3f22be4a	0.6357161
127	0x3f6385e6	0.8887619
128	0xbe67238f	-0.22572158
129	0xbe396ee3	-0.18108706
130	0xbedff645	-0.43742576
131	0xbf2d46dc	-0.6768625
132	0xbdba6280	-0.09100819
133	0x3f1ece8a	0.62033904
134	0xbd37ab8d	-0.044841338
135	0x3cd4d0e6	0.025978517
136	0x3d1e216d	0.038606096
137	0xbcb1b8d0	-0.02169457
138	0x3bfccd6e	0.007714919
139	0x3fa4c709	1.2873241
140	0xbf384793	-0.71984214
141	0xbf0e8f72	-0.5568763
142	0x3f41dcac	0.75727344
143	0x3e3ffdc1	0.18749143
144	0xbd19cb92	-0.037547655
145	0x3c86e85d	0.016468221
146	0xbcc60f96	-0.024177354
147	0x3f2def93	0.67943686
148	0x3eda63bd	0.4265422
149	0xbe40638e	-0.18787977
150	0x3e4756f2	0.19466761
151	0x3f9bc65b	1.2169908
152	0xbda8c59b	-0.08240815
153	0x3ce71703	0.028209215
154	0x3d0c5551	0.03426105
155	0xbcc191a9	-0.023629026
156	0xbd0d0ffd	-0.034439076
157	0xbd0b42e4	-0.03399934
158	0xbcfd0a5d	-0.03088873
159	0x3e1ba91c	0.15201229
160	0xbf463dff	-0.7743835
161	0xbbf7735b	-0.0075515932
162	0xbf1f243e	-0.62164676
163	0x3fb7c0e2	1.4355738
164	0xbcff4962	-0.031162921
165	0x3ca6b26e	0.020348754
166	0x3c0a0eb4	0.008426357
167	0xbc69c388	-0.01426781
168	0xbe9136a1	-0.2836199
169	0x3c9469e3	0.018116897
170	0xbe4672f3	-0.19379787
171	0x3ce1c87e	0.027561422
172	0x3f46510d	0.77467424
173	0x3a54fbbd	0.000812467
174	0xbf9c6710	-1.2218952
175	0xbf2a85f8	-0.6661067
176	0x3db06898	0.086137
177	0x3c82741e	0.01592451
178	0x3dfd7cbf	0.12377309
179	0x3b9d0911	0.0047923406
180	0xbd15e8da	-0.036599018
181	0xbbab20d0	-0.0052224174
182	0x3d067829	0.032829437
183	0x3d4031e1	0.04692257
184	0xbd0acb96	-0.03388556
185	0x3d3cc981	0.046090607
186	0x3c31c018	0.010849021
187	0x3c1946dc	0.009355273
188	0x399a20bc	0.00029397558
189	0xbd3eb24b	-0.046556752
190	0xbd387c23	-0.04504026
191	0x3c1e4018	0.009658836
192	0x3d10d5d5	0.035360176
193	0x3d325889	0.043541465
194	0x3c5277e4	0.012845967
195	0xbf65d34b	-0.8977553
196	0x3f067116	0.52516305
197	0x3ebf8dd1	0.37412885
198	0x3d4263d7	0.047458496
199	0x3ccf3242	0.02529252
200	0xbbaf2a70	-0.005345635
201	0x3eff0b8b	0.49813494
202	0x3f098729	0.53721863
203	0xbc4a36af	-0.012342139
204	0x3d23677f	0.039893623
205	0xbc8156e4	-0.015788503
206	0xbc56b638	-0.013104968
207	0x3d10fa61	0.03539503
208	0xbc25a1c8	-0.010109372
209	0x3c8d7972	0.017269824
210	0x3cc51a22	0.024060313
211	0xbce63007	-0.028099073
212	0x3c10be88	0.008834489
213	0xbfd33842	-1.6501544
214	0xbf11438d	-0.567437
215	0xbdb3397c	-0.08751199
216	0x3f159c19	0.5844131
217	0xbf977cc0	-1.1834946
218	0xbecced90	-0.40024996
219	0x3f07c25f	0.5303096
220	0xbf8c8b49	-1.0980006
221	0xbeb6e713	-0.3572317
222	0xbdc56fa6	-0.09640436
223	0x3f39d812	0.7259532
224	0x3daf556f	0.08561217
225	0x3c5f6fa4	0.013637457
226	0xbccb7ea7	-0.024840666
227	0xbc5c0b68	-0.013430454
228	0x3cb7bb4a	0.022428174
229	0x3d44da79	0.048059914
230	0x3ced038e	0.02893236
231	0xbb59c950	-0.0033231564
232	0x3b95fb70	0.004577093
233	0xbc654f34	-0.013995934
234	0x3f279ce4	0.6547377
235	0x3ee32cb2	0.44370037
236	0x3e9830ff	0.2972488
237	0x3d32ee8a	0.04368452
238	0xbcd29ed7	-0.025710506
239	0xbc37969a	-0.01120534
240	0xbe6fdb97	-0.2342361
241	0xbf86e071	-1.0537244
242	0xbe438fd2	-0.19097832
243	0xbdb7f299	-0.08981819
244	0xbf53c1ab	-0.8271739
245	0xbe4f4f42	-0.20245078
246	0xbceb7566	-0.028742503
247	0x3c5b4412	0.013382928
248	0xbc60bb53	-0.013716537
249	0x3f6b8006	0.91992223
250	0xbf978d86	-1.1840065
251	0xbeec00f4	-0.46094477
252	0xbe701751	-0.23446395
253	0x3f8a828f	1.0821093
254	0xbcc5cc2a	-0.024145205
255	0x3d4379a7	0.04772344

fc1.bias f4 [400]
0	0xbe478a89	-0.1948644
1	0xbeda55d9	-0.42643622
2	0xbe94cd0e	-0.29062694
3	0xbf09b202	-0.53787243
4	0xbdd04f45	-0.101713695
5	0xbee8adea	-0.45445186
6	0xbe7bc506	-0.24586877
7	0xbd09cff2	-0.033645578
8	0xbef5b2ec	-0.4798807
9	0xbea35dd5	-0.31907526
10	0xbdb170b0	-0.086640716
11	0xbeff853d	-0.4990634
12	0xbf2f1ff8	-0.68408155
13	0xbe5d6fb6	-0.21624646
14	0xbe50173d	-0.20321365
15	0xbe7de51f	-0.24794434
16	0xbf8a8a20	-1.0823402
17	0xbda4b690	-0.080426335
18	0xbf36065e	-0.71103466
19	0xbf6a2611	-0.91464335
20	0xbefffa38	-0.4999559
21	0xbf00d170	-0.50319576
22	0xbf010337	-0.5039553
23	0xbe84d724	-0.2594539
24	0xbeddca0b	-0.4331821
25	0xbe897ac9	-0.2685149
26	0x3dc0f84f	0.09422361
27	0xbd8a49f0	-0.06752384
28	0xbf022dd1	-0.5085116
29	0xbef8f3aa	-0.486234
30	0xbedb356d	-0.42814198
31	0xbde5dc9c	-0.112237185
32	0xbeee6a3e	-0.4656543
33	0x3e138e37	0.1440972
34	0xbec9b76e	-0.39397758
35	0xbd83acd3	-0.06429448
36	0xbecf1d08	-0.40451837
37	0xbf018f80	-0.5060959
38	0xbeba7ef4	-0.36424983
39	0xbe703ba3	-0.2346025
40	0x3ded6043	0.11590626
41	0xbe9892f2	-0.2979961
42	0xbe89bb76	-0.26900834
43	0x3e7b7955	0.24558003
44	0x3da81853	0.082077645
45	0xbed3b52e	-0.41349167
46	0xbf027325	-0.50956947
47	0x3e69235c	0.22767395
48	0xbe862fb2	-0.26208264
49	0xbe634d8e	-0.22197554
50	0xbf562f90	-0.83666325
51	0xbe66fbbb	-0.22556965
52	0xbee1cd31	-0.4410186
53	0xbeed61b0	-0.46363592
54	0xbed4f12a	-0.41590244
55	0xbe849838	-0.25897384
56	0x3e614405	0.21998604
57	0xbf4781b3	-0.7793228
58	0xbf337e40	-0.7011452
59	0xbe18ef93	-0.1493514
60	0xbee7608c	-0.45190847
61	0xbf0d7837	-0.5526156
62	0xbd6410da	-0.055680133
63	0xbed3459d	-0.41264048
64	0xbf067586	-0.52523077
65	0x3e1d53fc	0.15364069
66	0xbe8cd4dd	-0.27506152
67	0xbf483a81	-0.7821427
68	0xbef239c6	-0.47309703
69	0xbe8a7c0c	-0.27047765
70	0xbed4030c	-0.41408575
71	0xbf0a17df	-0.53942674
72	0xbf0a7f86	-0.54100835
73	0xbf07db2f	-0.5306882
74	0xbe6f96b7	-0.23397337
75	0xbf0d42e2	-0.5518018
76	0xbea298d3	-0.3175722
77	0xbe462a2a	-0.19352022
78	0xbf851517	-1.0397061
79	0xbe2e149e	-0.17000052
80	0xbe1bf7f6	-0.15231308
81	0xbef399d7	-0.47578308
82	0xbe5cfb67	-0.21580277
83	0xbf854e3d	-1.0414501
84	0xbec204da	-0.37894326
85	0xbec47729	-0.38372162
86	0x3dd0eccc	0.102014154
87	0xbef51614	-0.47868407
88	0xbf95b2fe	-1.1695249
89	0xbdc83be1	-0.09777046
90	0xbeca816d	-0.3955187
91	0xbe64b5fd	-0.22335048
92	0xbf4a6d33	-0.79072875
93	0xbe546d03	-0.2074471
94	0xbf0b4856	-0.5440725
95	0xbeb62748	-0.35576844
96	0x3f1757a8	0.5911813
97	0xbe98c3c4	-0.29836857
98	0xbe2b9b43	-0.16758446
99	0x3e4190f3	0.1890295
100	0xbecb6b1e	-0.3973016
101	0xbe015613	-0.12630491
102	0xbefc80f2	-0.49317127
103	0xbeb5beac	-0.35497034
104	0xbe5a5592	-0.21321705
105	0xbecc1b96	-0.39864796
106	0xbf79d2a7	-0.97587055
107	0xbef0f464	-0.47061455
108	0xbf4dbad4	-0.803632
109	0xbea8beaa	-0.32957965
110	0xbe89268e	-0.26787227
111	0xbf816733	-1.0109619
112	0xbf01d0f6	-0.50709474
113	0xbe87fa2e	-0.2655806
114	0xbe8b11f4	-0.27162135
115	0xbeaf637c	-0.34255588
116	0xbf32c2b5	-0.6982835
117	0xbd10fd31	-0.035397712
118	0xbf8ff095	-1.1245295
119	0xbe7948b2	-0.24344137
120	0xbf0e2f3b	-0.5554082
121	0xbf192d6a	-0.5983492
122	0xbe93a556	-0.2883708
123	0xbf2d102c	-0.676028
124	0xbed93cce	-0.42429203
125	0xbf04408e	-0.51661
126	0xbe02e0d2	-0.12781075
127	0xbe194c31	-0.14970471
128	0xbf0dacf3	-0.55342025
129	0xbed08de6	-0.4073326
130	0xbf6d555b	-0.9270837
131	0xbed7c4d2	-0.4214235
132	0xbf03802d	-0.51367456
133	0xbf219cf4	-0.63130116
134	0xbf065142	-0.5246774
135	0xbebb4fa0	-0.36584187
136	0xbefedc6f	-0.49777552
137	0xbefc4f34	-0.49279177
138	0xbe297fe5	-0.16552694
139	0xbeb0e6fc	-0.34551227
140	0xbe390c94	-0.18071204
141	0xbe08bcc6	-0.13353261
142	0xbdb2cf4a	-0.087309435
143	0xbe7cc9c4	-0.24686342
144	0xbf5a2ad7	-0.8522162
145	0xbf04e882	-0.5191728
146	0xbf5a46ab	-0.8526408
147	0xbf0d0638	-0.55087614
148	0xbe9e79da	-0.3095234
149	0xbe5303f1	-0.20606972
150	0x3ef76929	0.48322418
151	0xbeec2edf	-0.4612951
152	0xbf475339	-0.7786136
153	0xbe518a62	-0.20462945
154	0xbecc1228	-0.39857602
155	0xbe2c1cc9	-0.16807856
156	0x3de456a4	0.11149338
157	0xbeeac046	-0.45849818
158	0xbf402d8e	-0.7506951
159	0xbe2ebfce	-0.17065355
160	0xbe1397a4	-0.14413315
161	0xbdfe8d9a	-0.12429352
162	0xbf64c8a6	-0.89368665
163	0xbf1f916b	-0.62331265
164	0xbed505e1	-0.41606048
165	0xbea85ed9	-0.32884863
166	0xbda6d2d7	-0.08145683
167	0xbe392a50	-0.18082547
168	0xbe9cb986	-0.30610293
169	0xbf08cc56	-0.5343679
170	0xbe889e31	-0.2668319
171	0xbf34af11	-0.7057963
172	0xbd984cc5	-0.074365176
173	0xbe4de5aa	-0.20107141
174	0xbeda5c35	-0.42648473
175	0xbe770f8c	-0.24127024
176	0xbe074ee3	-0.13213687
177	0xbf0097a0	-0.5023136
178	0xbf1c9f7b	-0.6118085
179	0xbebfd666	-0.3746826
180	0xbf0a7405	-0.5408328
181	0xbf13ca4a	-0.57730544
182	0xbf3efebd	-0.7460745
183	0xbd971bf4	-0.073783785
184	0xbf453f03	-0.77049273
185	0xbe9fd2d0	-0.31215525
186	0xbf846312	-1.0342734
187	0xbf04d1ab	-0.5188243
188	0xbee085f2	-0.43852192
189	0xbeea9374	-0.45815623
190	0xbe27ee13	-0.16399412
191	0x3f0b2807	0.5435795
192	0xbf1a806a	-0.60352194
193	0xbefa1b81	-0.4884911
194	0xbe45459f	-0.1926484
195	0xbedccbc5	-0.43124214
196	0xbf16adbb	-0.5885884
197	0xbec085ad	-0.37601987
198	0xbf90b71f	-1.1305884
199	0xbee0b366	-0.4388687
200	0xbef549ae	-0.47907776
201	0xbea081af	-0.3134894
202	0xbf0f9bfb	-0.5609738
203	0xbf3f6c65	-0.7477477
204	0x3e6258da	0.22104207
205	0x3de340b2	0.11096324
206	0xbeba6898	-0.36407924
207	0xbeadeb40	-0.33968544
208	0xbf29c7ba	-0.66320384
209	0xbec4b319	-0.3841789
210	0xbef69198	-0.48157954
211	0xbd9acddb	-0.07558795
212	0xbeae4445	-0.3403646
213	0xbebf4dce	-0.37364048
214	0xbf428eee	-0.75999343
215	0xbf1cfff6	-0.61328065
216	0x3dad95ae	0.08475815
217	0xbca3c3f1	-0.019990893
218	0xbd88f400	-0.06687164
219	0xbee6412b	-0.44971594
220	0xbe60250e	-0.21889135
221	0xbf2c7706	-0.67369115
222	0xbecc4854	-0.39898932
223	0xbf154424	-0.583071
224	0xbe11616b	-0.14197318
225	0xbf31fc1f	-0.6952533
226	0xbee07cd3	-0.43845233
227	0xbf3c003b	-0.7343785
228	0xbe678bcd	-0.22611924
229	0xbe8f4ce4	-0.2798835
230	0x3dd4f26e	0.10397802
231	0xbeba9426	-0.36441153
232	0xbe9ab19c	-0.3021363
233	0xbecfc3a7	-0.40578958
234	0xbf0ad9f4	-0.5423882
235	0xbf3d989a	-0.74060977
236	0xbf0f8d76	-0.5607523
237	0xbf2fb968	-0.6864228
238	0xbf747095	-0.95484287
239	0xbf45c62c	-0.7725551
240	0xbf008763	-0.50206584
241	0x3e303265	0.17206724
242	0xbcbd33a0	-0.023095906
243	0xbed2717c	-0.41102207
244	0xbe1538fa	-0.14572516
245	0xbd0e3438	-0.03471777
246	0xbf3140c8	-0.69239473
247	0xbe4afafb	-0.19822304
248	0xbf8b6115	-1.0889002
249	0xbd80b0fb	-0.06283756
250	0xbf445855	-0.76697284
251	0x3e1e64d8	0.15468156
252	0xbed197ab	-0.40936026
253	0xbe6d38ea	-0.23166242
254	0xbdb34749	-0.08753831
255	0xbec18339	-0.37795427

fc2.weight f4 [300, 400]
0	0x3c92785c	0.017879657
1	0x3bf9079f	0.0075997855
2	0xbc5d131a	-0.013493324
3	0xbd27b65a	-0.04094539
4	0xbd5c7229	-0.05381981
5	0x3ce75fbc	0.028243892
6	0xbd8754d1	-0.06607974
7	0xbd0730bb	-0.033005457
8	0xbdadebb9	-0.08492226
9	0xbd97fe79	-0.07421584
10	0xbc458d40	-0.012057602
11	0x3c519a90	0.012793198
12	0x3d68dd3b	0.056851607
13	0x3d47ab4e	0.048747353
14	0x3d4ef96e	0.050530843
15	0x3c7d48f5	0.015459289
16	0x3d007a80	0.031366825
17	0x3d59b4ec	0.053151056
18	0xbd048660	-0.032354712
19	0xbce9ea3d	-0.028554076
20	0xbce3d84c	-0.0278131
21	0xbd4610ce	-0.04835587
22	0xbd2f2542	-0.04276014
23	0x3cf8381c	0.030300193
24	0xbd3fef9a	-0.04685936
25	0xbdd9ed26	-0.106409356
26	0xbd25e5b2	-0.040502258
27	0x3d526ae4	0.05137147
28	0xbc5d6458	-0.013512693
29	0xbd64c089	-0.05584768
30	0xbd465452	-0.048420258
31	0xbd235dcf	-0.039884385
32	0x3bad8ff0	0.0052966997
33	0xbc8a2b8b	-0.016866466
34	0xbd36fcc9	-0.04467467
35	0xbd0b0479	-0.033939812
36	0x3d01f5b3	0.031728458
37	0x3bcfa788	0.00633711
38	0x3d5f04f2	0.054448076
39	0xbcd866f4	-0.02641628
40	0x3d0f13ce	0.034930997
41	0xbd467750	-0.04845363
42	0xbc825444	-0.015909322
43	0xbd1f246e	-0.0388531
44	0xbdb02fe5	-0.08602885
45	0x3d498074	0.049194768
46	0xbc0b6d76	-0.008509984
47	0xbe075013	-0.1321414
48	0x3adf4c20	0.0017036237
49	0xbdc5fcce	-0.09667359
50	0xbd49b641	-0.049246076
51	0xbc36c7a4	-0.0111559965
52	0x3cd180f4	0.025574185
53	0xbd64ea54	-0.055887535
54	0xbd9595e0	-0.07303977
55	0xbcb1c5a6	-0.021700691
56	0xbdf5b690	-0.11997712
57	0xbdacc0d4	-0.084352165
58	0xbcdd7176	-0.027031641
59	0xbd85d101	-0.06534005
60	0xbcea77d8	-0.0286216
61	0x3c8af368	0.016961768
62	0x3d393e7c	0.045225605
63	0xbd3ac6db	-0.0455998
64	0xbc6c72f0	-0.0144317
65	0xbdc3dfa2	-0.09564139
66	0xbd4a650b	-0.04941277
67	0xbdf6f6bb	-0.12058779
68	0x3d4d76ca	0.050162114
69	0xbd61ec39	-0.05515692
70	0xbd5dcd48	-0.05415085
71	0xbda62f74	-0.0811452
72	0xbd1c970f	-0.03823
73	0xbd23544b	-0.03987531
74	0xbd846041	-0.064636715
75	0x3ce387b8	0.027774677
76	0xbc6604cc	-0.01403923
77	0xbd1d151a	-0.038350202
78	0xbd1f8760	-0.038947463
79	0xbcf82988	-0.030293241
80	0xbd62777a	-0.055289723
81	0x3cf923fd	0.030412668
82	0xbd666bed	-0.05625527
83	0x3d41484f	0.0471881
84	0xbc1d778c	-0.009611022
85	0x3caa3a30	0.0207797
86	0xbc8d8128	-0.0172735
87	0xbd63ce1b	-0.05561648
88	0xbd0e259f	-0.034703847
89	0xbd91ccd9	-0.0711915
90	0x3d4b809a	0.04968319
91	0xbc5815ea	-0.0131888185
92	0xbd651a57	-0.055933323
93	0xbdc10a03	-0.09425738
94	0xbcb549c3	-0.022129899
95	0x3d367d66	0.044553183
96	0xbcd1e45d	-0.025621587
97	0xbd41c9d7	-0.04731163
98	0xbd32f23f	-0.043688055
99	0x3c8ece7b	0.017432442
100	0x3d0f69c6	0.035012983
101	0xbc540670	-0.012940988
102	0x3cc1e52f	0.023668854
103	0x3d3a8620	0.045538068
104	0xbccfcb6c	-0.025365554
105	0xbda44ff0	-0.08023059
106	0xbd7ba04e	-0.061432175
107	0xbbe7d160	-0.00707452
108	0xbd5e2810	-0.054237425
109	0xbc7c8420	-0.01541236
110	0xbda6c54d	-0.08143101
111	0xbd1a1453	-0.03761704
112	0xbd51fb6e	-0.051265173
113	0x3d587d40	0.052853823
114	0xbcbf0a06	-0.02332021
115	0x3c9b33b5	0.018945554
116	0xbd645e35	-0.055753905
117	0xbdd855b6	-0.10563223
118	0xbd105eae	-0.035246544
119	0xbd47694f	-0.048684414
120	0x3d34252c	0.043980762
121	0xbd86d609	-0.06583793
122	0x3d1c3616	0.038137518
123	0xbda8d0c8	-0.08242947
124	0x3d4ed0de	0.05049216
125	0xbb7bf170	-0.0038443469
126	0xbcab77c1	-0.020931127
127	0xbd19111d	-0.037369836
128	0xbd6aa1d3	-0.057283234
129	0xbdfda926	-0.12385778
130	0xbde2a36e	-0.11066328
131	0xbd8efbf9	-0.06981654
132	0xbd0823d0	-0.03323728
133	0xbe03bc59	-0.12864818
134	0x3cb9ab0e	0.022664573
135	0xbd45fed0	-0.04833871
136	0xbd9e3639	-0.07725186
137	0xbc93ed84	-0.018057592
138	0xbccfb85b	-0.025356462
139	0xbca09f99	-0.019607352
140	0xbd8e8ffa	-0.06961055
141	0x3d240930	0.040047824
142	0xbd305bee	-0.04305642
143	0xbba43060	-0.0050106496
144	0x3c3bc11a	0.011459613
145	0x3cdac854	0.026706852
146	0xbd4c00e9	-0.049805555
147	0x3ac7b980	0.0015237778
148	0x3d09b728	0.033621937
149	0x3c8df7e8	0.017330125
150	0x3db74617	0.089489155
151	0xbc5b2f14	-0.0133779235
152	0xbdaf8a92	-0.08571352
153	0xbbaa3580	-0.005194366
154	0xbcc5342c	-0.024072729
155	0xbd947483	-0.07248785
156	0xbd544450	-0.05182296
157	0xbd193b90	-0.03741032
158	0xbc04ab8c	-0.008097541
159	0xbccd737c	-0.025079481
160	0xbd39ebbd	-0.045390833
161	0xbcf38bcb	-0.029729744
162	0x3db18281	0.0866747
163	0xbd82f87c	-0.06395051
164	0x3bdf0e2b	0.006807109
165	0x3dabb839	0.08384747
166	0x3c6c72ce	0.014431668
167	0x3d1b8648	0.037969857
168	0xbd52c2c7	-0.051455285
169	0xbd8d3ef8	-0.06896776
170	0x3d597dc0	0.05309844
171	0xbbd6cff0	-0.00655555
172	0xbc5ee4ac	-0.013604324
173	0xbc39dfbc	-0.011344846
174	0xbd697adf	-0.057001945
175	0xbbc3a9be	-0.0059711626
176	0xbd8521a2	-0.065005556
177	0x3d0326f0	0.032019556
178	0xbcb994a2	-0.022653881
179	0xbd45956f	-0.048238214
180	0xbd2f8b05	-0.04285719
181	0xbd5c8add	-0.053843368
182	0xbd9d0a49	-0.07667977
183	0xbd080d7a	-0.033215977
184	0x3d59be5a	0.05316005
185	0xbcb6ff92	-0.022338662
186	0xbd63dea3	-0.055632245
187	0x3b16aa60	0.0022989735
188	0xbd516435	-0.051120955
189	0x3bf644b0	0.0075155124
190	0xbd90cd56	-0.07070415
191	0xbd27330e	-0.040820174
192	0xbd42284e	-0.04740172
193	0x3d8894ef	0.06669032
194	0xbd8e1d08	-0.06939131
195	0xbd23c6af	-0.0399844
196	0xbd5aea42	-0.053446062
197	0xbca5dd10	-0.020247012
198	0x3d4475a0	0.04796374
199	0xbd2a148e	-0.04152351
200	0x3d2812e6	0.041033648
201	0xbd93a7f1	-0.07209767
202	0x3d40d974	0.04708238
203	0xbdbfcac7	-0.093648486
204	0xbd53882e	-0.051643543
205	0xbcbbab2f	-0.022908775
206	0x3d8c93ff	0.068641655
207	0x3d6a81c4	0.05725266
208	0xbdb38cc2	-0.08767082
209	0xbd76959d	-0.060201276
210	0xbd2577ce	-0.040397458
211	0xbcce2a8c	-0.025166772
212	0xbb836fd8	-0.0040111355
213	0xbd10b089	-0.035324607
214	0xbc09817d	-0.008392689
215	0xbd0b5d04	-0.034024253
216	0xbd507733	-0.050894927
217	0xbd9205e4	-0.0713003
218	0xbd695154	-0.056962326
219	0xbd164b17	-0.036692705
220	0x3cb1adac	0.021689259
221	0xbd081d52	-0.033231087
222	0xbcddaf75	-0.027061203
223	0x3cf28ee3	0.02960915
224	0xbd1f44ff	-0.03888416
225	0xbd67d063	-0.056595217
226	0xbdcb5efb	-0.099302255
227	0xbd112081	-0.03543139
228	0xbc8dafe0	-0.017295778
229	0xbcf6d7e9	-0.03013225
230	0x3c8ad28a	0.016946096
231	0xba7c3540	-0.0009620972
232	0x3d5424a2	0.05179275
233	0x3d3066e2	0.043066867
234	0xbcffe436	-0.03123675
235	0x3caf9f0e	0.021438148
236	0xbd0c7857	-0.034294453
237	0xbd8c7e92	-0.06860079
238	0x3bdc0a86	0.0067151217
239	0x3d260c26	0.04053893
240	0x3c5f8010	0.013641372
241	0x3c569223	0.013096365
242	0x3d85e602	0.06538011
243	0xbd0f50e4	-0.034989253
244	0x3d3cc08a	0.046082057
245	0xbd6cc65d	-0.05780636
246	0x3cb75043	0.022377139
247	0xbd16c0f3	-0.036805104
248	0x3d33ea00	0.04392433
249	0xbd8b32a0	-0.06796765
250	0x3cacabd9	0.021078037
251	0xbca6b176	-0.020348292
252	0xbd0667f7	-0.032813992
253	0xbe07e170	-0.13269591
254	0xbd4ac935	-0.049508292
255	0x3bc4b020	0.006002441

fc2.bias f4 [300]
0	0xbd779a03	-0.06044961
1	0xbca59bdf	-0.020215927
2	0xbccf81b3	-0.0253304
3	0xbe5037c6	-0.20333776
4	0xbd6d6c75	-0.05796476
5	0xbd4ffa99	-0.050776098
6	0xbbee6a7d	-0.007275878
7	0xbd4828cb	-0.04886703
8	0x3cde1a4c	0.027112149
9	0xba2c1bb8	-0.000656541
10	0xbc2edb32	-0.010672377
11	0xbfa2e836	-1.2727115
12	0xbc58963c	-0.013219412
13	0xbd39b939	-0.045342658
14	0x3c3264e1	0.010888309
15	0xbcfcb888	-0.03084971
16	0x3c70101f	0.014652281
17	0xbdad8b3e	-0.08473824
18	0xbca90c82	-0.020635847
19	0xbdc887a9	-0.097915
20	0xbd92cca4	-0.07167938
21	0xbd82edb9	-0.06392998
22	0x3c3c7b41	0.011503995
23	0xbd877e23	-0.066158555
24	0xbf4d3a62	-0.8016721
25	0xbf0d9e45	-0.55319625
26	0xbd9ef898	-0.07762259
27	0xbaef604d	-0.0018262953
28	0xbe943652	-0.28947693
29	0x3e23c58c	0.15993327
30	0xbeca711e	-0.39539427
31	0x3b484f79	0.0030564948
32	0xbd2993c7	-0.041400697
33	0xbcdd1e68	-0.026992038
34	0xbf2ac5a6	-0.6670784
35	0xbe025a59	-0.12729777
36	0x3b980d85	0.0046402835
37	0xbd7e6e15	-0.0621167
38	0xbcf361a4	-0.029709645
39	0xbd61e4aa	-0.05514971
40	0xbcdeb004	-0.02718354
41	0xbd7e84a9	-0.062138233
42	0xbdc85248	-0.09781319
43	0xbc1261f8	-0.00893449
44	0xbd6f0083	-0.058350097
45	0xbd8c0814	-0.06837478
46	0xbd4b3722	-0.049613126
47	0x3e31df07	0.17370234
48	0xbf774331	-0.965869
49	0xbd53760d	-0.051626254
50	0xbd15199d	-0.03640138
51	0x3c88035b	0.016603163
52	0xbd6842bc	-0.056704268
53	0xbb85fae7	-0.004088748
54	0xbd835d7d	-0.06414316
55	0xbd8802c3	-0.06641152
56	0xbd1b87f3	-0.03797145
57	0xbe80f6b1	-0.2518821
58	0xbd5cf9f5	-0.053949315
59	0x3bb241b7	0.0054399627
60	0x3f07ac9d	0.5299776
61	0x3f0cbad9	0.54972607
62	0xbc3e8f68	-0.01163087
63	0x3ef186c6	0.47173136
64	0xbd1648cb	-0.036690515
65	0x3c4e938d	0.012608421
66	0xbdab6c4e	-0.08370267
67	0xbc63261d	-0.013864067
68	0x3cee4c01	0.029088976
69	0xbecd4336	-0.4009034
70	0xbd5a1730	-0.05324477
71	0xbbf13d9d	-0.007362081
72	0xbd25ad7e	-0.04044866
73	0xbbe29c60	-0.006915614
74	0xbd8cbdb4	-0.068721205
75	0xbdbc1abc	-0.09184787
76	0xbcd66ee1	-0.026175918
77	0xbc290ea1	-0.010318429
78	0xbd252668	-0.04031983
79	0xbea8016f	-0.32813594
80	0xbe9057e7	-0.28192064
81	0xbc85c8dc	-0.016331129
82	0xbd31d5a2	-0.043416627
83	0xbd1cea37	-0.038309302
84	0x3dbf4953	0.09340157
85	0xbd5e6362	-0.054293998
86	0xbbf098ad	-0.007342419
87	0xbd13dc04	-0.036098495
88	0xbdc37e28	-0.09545547
89	0xbca4772e	-0.02007636
90	0x3e566ce5	0.20939977
91	0xbcf03708	-0.029323116
92	0xbd9d418e	-0.07678519
93	0x3ca1a010	0.019729644
94	0xbebb7853	-0.36615238
95	0xbd049f5c	-0.03237854
96	0xbdb272ab	-0.087132774
97	0xbd03dcb0	-0.032192886
98	0xbde21b20	-0.1104033
99	0xbcfd2200	-0.030900002
100	0xbcb1f9b9	-0.021725522
101	0xbc093992	-0.008375542
102	0xbd622f13	-0.055220675
103	0xbd383095	-0.044968206
104	0xbd64f39e	-0.055896394
105	0xbcd655c3	-0.026163941
106	0xbd929af1	-0.07158459
107	0xbdb7f4ee	-0.089822635
108	0xbda5aa1d	-0.08089087
109	0xbd74196f	-0.059594568
110	0xbeaf2892	-0.3421064
111	0xbcb20f56	-0.021735828
112	0x3ba00d32	0.0048843855
113	0xbe97eb64	-0.29671776
114	0xbd241d78	-0.040067166
115	0x3e2bc12d	0.1677291
116	0xbe90d3e1	-0.2828665
117	0xbc8cc5d1	-0.01718417
118	0xbd665305	-0.056231517
119	0xbe0b37fd	-0.13595577
120	0xbd822d6b	-0.06356319
121	0xbd712b41	-0.05887914
122	0x3dab9de0	0.08379722
123	0xbdbd3f22	-0.09240557
124	0xbbbd7e7f	-0.005782902
125	0x3e1a38c2	0.15060714
126	0xbd1db9cc	-0.038507268
127	0xbc67882c	-0.014131587
128	0x3d96534c	0.07340106
129	0xbcb5b482	-0.0221808
130	0xbd4878d5	-0.04894336
131	0xbc89284e	-0.016742852
132	0xbd6c76d8	-0.057730526
133	0xbd67684d	-0.056495953
134	0x3d086d7a	0.03330753
135	0x3c0c22b0	0.008553192
136	0xbd856f4b	-0.06515368
137	0xbba5cfb4	-0.0050601605
138	0xbd47f0f5	-0.04881378
139	0xbe1d4d9b	-0.15361635
140	0xbd342304	-0.043978706
141	0xbd3df678	-0.04637763
142	0xbd5c0a68	-0.05372086
143	0xbe411f77	-0.18859659
144	0xbd8c1075	-0.068390764
145	0xbd6f060c	-0.058355376
146	0xbbefa1f2	-0.0073130066
147	0xbdaca484	-0.08429816
148	0xbd322d31	-0.04350013
149	0xbb37213f	-0.00279434
150	0x3b9d18ed	0.004794231
151	0xbe2653af	-0.1624286
152	0xbdb9aeb3	-0.09066524
153	0xbf85d49c	-1.0455508
154	0x3e3730ec	0.17889756
155	0xbc97cd26	-0.01853044
156	0xbd8caf6d	-0.06869397
157	0xbd546454	-0.051853493
158	0x3e988860	0.29791546
159	0xbd6621d5	-0.05618461
160	0x3c5ebc4b	0.013594697
161	0xbcebafa4	-0.028770275
162	0x3bb4978f	0.0055112313
163	0x3e4141b8	0.18872726
164	0xbd2efacd	-0.04271965
165	0x3f3b9440	0.73273087
166	0xbd2d1263	-0.042253863
167	0xbd3cab0f	-0.04606157
168	0xbcc39324	-0.023873873
169	0xbb99bc09	-0.004691605
170	0xbd8ef371	-0.069800265
171	0xbced3ee0	-0.028960645
172	0xbd918fd0	-0.07107508
173	0xbd3d212f	-0.046174224
174	0xba9428db	-0.001130368
175	0xb98cc345	-0.00026848368
176	0xbf3799d3	-0.7171909
177	0xbd47ae69	-0.048750315
178	0x3b0312ee	0.0020000297
179	0xbfa6cfbc	-1.3032146
180	0xbc73f7ce	-0.014890624
181	0xbca07293	-0.019585883
182	0xbc1553a2	-0.009114178
183	0x3cc8a434	0.02449236
184	0xbe4ef682	-0.20211223
185	0xbda97ae9	-0.082753964
186	0xbda049ce	-0.07826577
187	0xbd4a2718	-0.04935369
188	0xbdab0b70	-0.08351791
189	0x3b9e1693	0.0048244684
190	0xbd03b2d0	-0.03215295
191	0x3b1a19ed	0.0023513988
192	0xbd8d64dc	-0.06904003
193	0xbd9eb9e0	-0.077502966
194	0x3b72395a	0.0036960454
195	0xbd2cadda	-0.042157985
196	0xbc827d76	-0.015928965
197	0xbc5833c8	-0.013195939
198	0x3bfd1687	0.0077236327
199	0xbe4b4142	-0.19849113
200	0xbc9eb4f5	-0.019373396
201	0xbdce8e02	-0.100856796
202	0xbd93ee79	-0.072232194
203	0xbefb6f6b	-0.49108443
204	0xbd5ec281	-0.054384712
205	0xbdb23901	-0.08702279
206	0xbcd34b9b	-0.025792887
207	0xbe809a00	-0.25117493
208	0xbc7eec99	-0.015559339
209	0xbce50cd8	-0.027960226
210	0xbe15f280	-0.14643288
211	0x3c73c629	0.014878788
212	0xbedd1a52	-0.43184143
213	0xbd0764d4	-0.03305514
214	0xbec883b7	-0.3916299
215	0xba331310	-0.00068311486
216	0x3ee86673	0.45390663
217	0xbb9f53ab	-0.004862269
218	0xbc782d24	-0.015147481
219	0x3cd639e2	0.026150648
220	0x3c66dac6	0.014090246
221	0xbe160ed7	-0.14654098
222	0xbe317a3d	-0.17331786
223	0xbd994f30	-0.07485807
224	0xbcad997a	-0.021191347
225	0xbe8643e3	-0.26223668
226	0xbc823402	-0.01589394
227	0xbd7b591b	-0.061364274
228	0xbdcd47ca	-0.10023458
229	0xbd794dfb	-0.060865384
230	0xbf4e187f	-0.8050613
231	0xbd939f44	-0.07208112
232	0xbd853c5e	-0.06505655
233	0xbd33a3c2	-0.043857343
234	0xbd3f77b2	-0.04674501
235	0xbd1fb5cb	-0.03899173
236	0xbe76428e	-0.24048826
237	0x3ecb4023	0.3969737
238	0x3e652a71	0.22379471
239	0xbd8b2803	-0.06794741
240	0x3ecf854c	0.40531385
241	0x3d022308	0.03177169
242	0xbaf8dfa8	-0.0018987553
243	0x3e5dcb59	0.21659602
244	0xbd8c3f11	-0.068479665
245	0xbd5c0d05	-0.053723354
246	0xbe66bd51	-0.22533156
247	0xbc3d1ed9	-0.011542999
248	0x3bc892ae	0.006121001
249	0xbd99dcd2	-0.07512821
250	0xbd320f73	-0.043471765
251	0xbd7ca98a	-0.061685123
252	0xbd70a9bd	-0.058755625
253	0x3b928133	0.004470968
254	0xbd63d3cd	-0.05562191
255	0xbdc870a5	-0.0978711

fc3.weight f4 [1, 300]
0	0x3cfc230d	0.030778432
1	0x3c0fbaac	0.008772533
2	0xbbecf2f5	-0.007231111
3	0x3e82244c	0.25418317
4	0xbc17d5f6	-0.009267321
5	0xbc2e3a93	-0.010634082
6	0x3c89de92	0.016829763
7	0x3aa1d9a5	0.0012348188
8	0x3bf7344d	0.0075440765
9	0xbd21f015	-0.0395356
10	0xbcb1bb68	-0.021695808
11	0x3ce7bd38	0.028288469
12	0xbcb2a0d5	-0.021805206
13	0x3da4d854	0.08049074
14	0xba8bc508	-0.0010663578
15	0xbc352ef8	-0.0110585615
16	0xbb48f2a3	-0.00306622
17	0x3cb775d5	0.022395054
18	0x3be7af39	0.0070704487
19	0x3e8b12a6	0.27162665
20	0xbcac37bf	-0.021022676
21	0x3cc6e20c	0.02427771
22	0x3bfe3538	0.007757809
23	0x3ef0d9a9	0.47041062
24	0x40281908	2.6265278
25	0xc015e09f	-2.3418348
26	0xb95c9c1d	-0.00021038992
27	0x3c043a55	0.008070548
28	0xbea71782	-0.32635123
29	0x3b0087dc	0.0019612228
30	0x3b987e01	0.0046536927
31	0x3c39a0a1	0.011329801
32	0x3cb12b90	0.021627218
33	0xbce4f290	-0.027947694
34	0x3dac7c70	0.08422172
35	0xbb5609de	-0.003265969
36	0xbca0e4d9	-0.019640373
37	0x3bf2e6e6	0.007412779
38	0x3c1c7190	0.00954856
39	0xbbd3612c	-0.006450793
40	0x3bf90886	0.007599893
41	0x3c19176d	0.009343964
42	0xbcdd753d	-0.027033443
43	0x404b96b3	3.181073
44	0x39d79320	0.00041117612
45	0xbc4b68a9	-0.01241509
46	0xbcabd2a9	-0.020974474
47	0xbe378899	-0.17923202
48	0xc02b0722	-2.6723104
49	0x3ba2b7a1	0.004965738
50	0x3b472aed	0.0030390576
51	0xbc5a9428	-0.013340987
52	0x3b23e83b	0.0025010246
53	0xbcb0dca3	-0.021589583
54	0xbb9f71fc	-0.004865883
55	0xbc50c988	-0.012743361
56	0xbcdaea9c	-0.026723199
57	0xbfcce03c	-1.6005931
58	0xbc28a0fc	-0.010292288
59	0x3cd4e5d4	0.025988497
60	0x3e9a6f49	0.3016303
61	0x3d5e47bf	0.05426764
62	0x3c48af7a	0.012248868
63	0x3eff4fba	0.49865514
64	0xbbec8a1d	-0.007218613
65	0x3e0abada	0.1354784
66	0xba9398da	-0.0011260763
67	0xbc5baadd	-0.013407436
68	0xbb264812	-0.0025372547
69	0x3eb27abe	0.3485927
70	0xbca3d284	-0.019997843
71	0xbaa22d8d	-0.0012373194
72	0xbc0081d4	-0.007843453
73	0x3c8f8a14	0.017521895
74	0x3cc76f01	0.024344923
75	0x3feabc03	1.8338627
76	0x3bb63539	0.005560544
77	0xbce52663	-0.027972406
78	0xbbe01c5e	-0.006839319
79	0x3ea7356e	0.3265795
80	0xbea627ec	-0.32452333
81	0xbb94b4d9	-0.0045381603
82	0xbabb9aff	-0.001431316
83	0x3c0fa8c3	0.008768263
84	0x411af87f	9.685668
85	0xbbad442a	-0.005287667
86	0xbcb72068	-0.02235432
87	0x3c803e15	0.015654603
88	0x3cb51bd3	0.022107994
89	0xbcbf0317	-0.023316903
90	0x3db06282	0.08612539
91	0x3b1bdd7c	0.0023783138
92	0x3c46d33c	0.012135323
93	0x3bc714ae	0.0060754633
94	0xbbe38d3a	-0.0069443258
95	0x3b1f1383	0.0024273105
96	0xbc105538	-0.00880938
97	0x3caceb6f	0.021108357
98	0x3d096707	0.03354552
99	0x3cad4512	0.0211511
100	0x3ccac5e1	0.02475256
101	0x3bdf5d1c	0.0068165194
102	0x3ca071c7	0.019585503
103	0xbc771e7f	-0.015082954
104	0xbc58f0b0	-0.013240978
105	0x3ca14f27	0.019691063
106	0x3cbe11b5	0.023201803
107	0x3b4746cb	0.0030407186
108	0xbcd6a989	-0.026203888
109	0x3be504d0	0.006989099
110	0x3fcc8836	1.5979068
111	0xba2ca7b5	-0.00065862696
112	0x3d3c0a1a	0.04590807
113	0xbdc181a7	-0.09448557
114	0x3aa2225b	0.0012369858
115	0x3ea09feb	0.31372008
116	0xbc8cce74	-0.017188288
117	0x3b80f3ce	0.003935314
118	0xb9de9ac0	-0.00042458437
119	0x3b16374b	0.002292114
120	0x3ffc858b	1.9728254
121	0x3a08b529	0.0005214983
122	0x3fc4dea4	1.5380445
123	0x3c9c0e96	0.019049924
124	0xbcbbdab9	-0.022931444
125	0x3b6de898	0.0036301967
126	0xbce682d1	-0.02813855
127	0x3c9a4dcc	0.018835925
128	0x3b8be471	0.0042691757
129	0xbcb68b6d	-0.02228328
130	0xbc9cbaa9	-0.019131975
131	0xbe0aaf01	-0.13543321
132	0xbcf5a041	-0.029983642
133	0x3bc50c5e	0.006013437
134	0x3c7e21ad	0.015510959
135	0xbd00c4e5	-0.031437773
136	0x3ca6f44e	0.020380165
137	0xbbaa94c0	-0.0052057207
138	0x3ca8cc5d	0.02060526
139	0xbfd1aaac	-1.638021
140	0xbca79132	-0.020454977
141	0x3cf9fbeb	0.030515632
142	0xbb9546b9	-0.00455555
143	0x3e1e6a72	0.15470293
144	0xbc9cb80f	-0.019130735
145	0x3c11aa2a	0.008890668
146	0xbc9eaad3	-0.019368565
147	0xbc4967c7	-0.012292809
148	0xbc54a704	-0.012979273
149	0xbcd84c59	-0.026403593
150	0x3be1fc47	0.006896529
151	0xbf0ba60a	-0.5455023
152	0xbc396296	-0.011315009
153	0x3e805bec	0.2507013
154	0x4008ed93	2.1395004
155	0x3cc51826	0.024059366
156	0xbcb05395	-0.02152423
157	0xbcb9dee6	-0.022689294
158	0x3f5e563f	0.8685035
159	0x3c9f0e21	0.019415917
160	0x3c00a149	0.007850953
161	0xbc220e1e	-0.009891061
162	0xbcaa0fa6	-0.020759415
163	0xbf03de65	-0.5151122
164	0xbbce7f8c	-0.006301826
165	0x3e1cbb6f	0.15305875
166	0xbbbd196b	-0.0057708523
167	0xbbbf97fc	-0.0058469754
168	0x3c151e2c	0.009101432
169	0xbc61fc32	-0.013793038
170	0x3cc8718a	0.024468202
171	0x3b3ae030	0.0028514974
172	0x3c7b502a	0.015338937
173	0xbd0f0719	-0.03491888
174	0xbcb0fe43	-0.021605616
175	0xbc836188	-0.016037717
176	0xbf9cc65b	-1.2248033
177	0x3c98051d	0.018557126
178	0xbc455e08	-0.012046345
179	0x3d33c073	0.043884706
180	0x3c031ffb	0.00800323
181	0x3ccb6cbd	0.024832124
182	0xbca2ad00	-0.019857883
183	0x3c18f05a	0.009334648
184	0x3e5430e9	0.20721783
185	0x3c94eaf5	0.018178442
186	0x3d6e8e76	0.05824133
187	0x3c351f99	0.011054897
188	0x3cca0786	0.02466179
189	0x3b2e6395	0.0026609648
190	0xba1897a6	-0.0005820937
191	0x3bfea290	0.007770844
192	0xbcb0c8bb	-0.02158009
193	0xbce28c98	-0.027654931
194	0xbc8c9619	-0.017161416
195	0xbd126684	-0.035742298
196	0x3c00effe	0.007869719
197	0x3bb52021	0.0055275117
198	0x3c12dbf4	0.008963574
199	0x4012a45f	2.2912824
200	0xbb7a7243	-0.0038215078
201	0xbbf5b827	-0.0074987593
202	0x3ceac4c2	0.028658275
203	0xbd92d26b	-0.0716904
204	0xbc59838c	-0.013275992
205	0x3c8670d1	0.016411217
206	0x3cf1dc40	0.029523969
207	0x3eb2f74a	0.34954292
208	0x3ba491c4	0.0050222594
209	0x3cb62cd5	0.022238174
210	0x400a8241	2.1642
211	0xbb2bf3c3	-0.0026237823
212	0x3e2b2f44	0.16717249
213	0xbc405ba4	-0.011740599
214	0x3dd70ce6	0.10500507
215	0x3cd0048d	0.025392795
216	0x3d8284ab	0.06372961
217	0x3c3123a0	0.010811716
218	0x3d2e67b7	0.04257938
219	0xc1a31aeb	-20.388144
220	0xbcfd82cd	-0.03094616
221	0x3c43ad2f	0.011943146
222	0x3a875402	0.0010324719
223	0xbc90293d	-0.017597789
224	0x3c0d314e	0.008617712
225	0x3e9d9d25	0.30783954
226	0xbccfe128	-0.025375918
227	0x3c235b60	0.009970516
228	0xbc5958bc	-0.013265785
229	0x40000dba	2.0008378
230	0xbd9216c9	-0.07133252
231	0xbce88bbc	-0.028386943
232	0xbb819b7c	-0.0039553028
233	0x3a6cb437	0.00090295397
234	0xbbdb5c43	-0.006694348
235	0xbcc0622c	-0.023484312
236	0xbeb21688	-0.34782815
237	0xbf63ad29	-0.88936096
238	0xbede6aac	-0.4344076
239	0xbd1cf91b	-0.038323503
240	0xbe40d33f	-0.18830584
241	0x3b567526	0.0032723635
242	0x3a2d02c6	0.00065998395
243	0x3e9c48f9	0.30524424
244	0xbd1ed2f0	-0.038775384
245	0xb805467d	-3.177532e-05
246	0x3d8cdf83	0.06878569
247	0x3cb9cd2e	0.022680845
248	0x3c7fa240	0.015602648
249	0x3d0400e7	0.032227423
250	0xbbdcdbb7	-0.0067400592
251	0xbb02a68f	-0.0019935702
252	0x3cba1754	0.022716202
253	0x3c749518	0.014928125
254	0x3c498ac4	0.012301151
255	0xbf523a5a	-0.8212029
