RL/MountainCar/checkpoint.pth (torch, 1905 bytes, 3 tensors)

fc1.weight f4 [16, 2]
0	0xbe01c1cd	-0.12671585
1	0x404daf6f	3.2138326
2	0xbecd6306	-0.4011461
3	0x413baa43	11.729068
4	0x403470f9	2.8193953
5	0x40b16cc7	5.5445285
6	0x402266ca	2.5375237
7	0x406f6a02	3.7408452
8	0x3ec9c617	0.39408943
9	0xc0d2af74	-6.5839176
10	0x405a9534	3.4153566
11	0xc0be1e9f	-5.941238
12	0x4032b032	2.792004
13	0xc08ae48c	-4.340399
14	0xc041ae05	-3.0262463
15	0x40d4cb83	6.6498427
16	0x403142ef	2.7697103
17	0xbf79ef60	-0.9763088
18	0x3ff13cac	1.884664
19	0x40b4b95f	5.6476283
20	0x40acd3c0	5.4008484
21	0x406d45d3	3.7073867
22	0x40fc699d	7.8878922
23	0xbfcf85b9	-1.6212684
24	0x40965acd	4.698584
25	0xc02e28a8	-2.7212315
26	0xc04e2509	-3.2210104
27	0x400109a0	2.0162125
28	0x4066099b	3.5943363
29	0x4097911a	4.7364626
30	0x4061ee2d	3.530162
31	0x40831921	4.0968175

fc1.bias f4 [16]
0	0xc0d35ab0	-6.6048203
1	0x3f7d4c57	0.9894461
2	0xc0a1ca20	-5.0559235
3	0xc08ce068	-4.4023933
4	0xbfc6b59c	-1.5524173
5	0xbf8a08eb	-1.0783972
6	0xbeda0458	-0.4258144
7	0xc0f21c4a	-7.5659533
8	0xc01e3183	-2.471772
9	0x3e52806a	0.20556799
10	0xbf803764	-1.0016904
11	0xc0a729c6	-5.2238493
12	0xbfd2e024	-1.6474652
13	0xc0acd4ed	-5.400992
14	0xc006abea	-2.1042428
15	0xc0741d03	-3.8142707

fc2.weight f4 [1, 16]
0	0x404d29b9	3.2056715
1	0x3faf830a	1.3711865
2	0xc041035a	-3.0158296
3	0x3f30747d	0.68927747
4	0xbf862ede	-1.0483053
5	0x3fc605b4	1.547049
6	0x3ded0da1	0.11574865
7	0x40f1a968	7.5519295
8	0xc0ae336c	-5.443777
9	0x3efa296d	0.4885973
10	0x3dc30c4a	0.09523828
11	0x406a5f8d	3.662082
12	0x3faedb48	1.3660669
13	0x3f65235f	0.89507097
14	0xbebf2012	-0.37329155
15	0xbff9cc31	-1.9515439
